notebook/lavar_supply_best.pth (torch, 52772 bytes, 19 tensors)

lavar.encoder.model.0.weight f4 [32, 40]
00000000: d1eb 9e3d 191a 563d a8fe f63d 7fb0 b9bc
00000010: bf4f cbbc b905 6a3c a8db bb3d a033 b33d
00000020: 92d2 eb3d 5c4a 013d 60d9 fc3d 3bda 0bbc
00000030: 39a1 9dbd cb2d 15bd 53cd a2bd c9b9 d9bd
00000040: e992 53bd 2fe9 f43c fa0c a33d dbfb 003d
00000050: 0a64 1ebe 3030 bc3d ef2f 373d fbac 733e
00000060: 4f8d 33bd 8b8d b8bd 3c3d 47bd b922 c93d
00000070: 73f1 b9bd f619 663c a2b3 5dbd e86f 833d
00000080: acef 293d 9f9e 2c3c 13c5 07bd b85f 853d
00000090: 67cd c63c 3ccd 00bd be29 81be fc1f 0cbe
000000a0: 3432 253d 678c b2bb 4193 993d d46a 303c
000000b0: 6c84 df3d 7be2 5a3d 812a 123e 46f9 0239
000000c0: 8fde aa3d e012 b83b 4368 da3d 0c78 37bc
000000d0: 252f a53d f76f 003e f46d a03b cb38 6bbc
000000e0: b812 bcbd 2f78 eebc dd62 243d 7ba3 a03d
000000f0: a563 893d 8642 f03c d06c d1bc 6ada d03d
00000100: 48a8 5dbc 0ab7 793d d084 c83d 1402 a73c
00000110: c265 81bd 973c f23d eac2 98ba 19d6 963b
00000120: 5d2b b83d 89d4 d2bd 335c 6a3d 8503 5b3d
00000130: 5290 503d e344 963c e22f 92be 7a74 23be
00000140: 4f7b 163c 09fb 62bd aa7c b1bd 654e 6a3c
00000150: 5d1e 1c3d 7c81 c43c 7fab 50bd 3c52 07bc
00000160: a0c3 a43b d6c6 183d 0033 c1bc d63e 00be
00000170: 5673 ba3d 3e81 3cbc e1ad 493d b299 863d
00000180: ea1f 463d 59b2 8c3d 8280 153c 4ecc 13bc
00000190: fd3e 803c b1b5 953d a60e ecbd fba5 a93d
000001a0: 7549 523d e3ae 0ebd 6d2a 053d da0d dcbc
000001b0: 8959 133d f9b3 b7bd b11e 3abd 7f79 823d
000001c0: 4711 e03c 3bc8 22bd 5c1c 923d fa9b d43c
000001d0: 8ff8 e63d 82cd a53c 2949 5c3e 1142 ea3d
000001e0: 13cf 713d baa0 ccbd 3537 153c 7d90 bf3b
000001f0: c438 e43d 5aaf b3bb 84ab 333e 4b75 a6bc
00000200: 6df8 95bc 620a 3b3c a363 0cbd a816 b03d
00000210: 4dd7 00be 1b71 d5bd d7d3 333d 6380 f9bc
00000220: a85a a43d 8a62 c73d e99c 43bc 3c4f 573d
00000230: 0d69 9abc dce4 4c3d ae0d 6b3d fdeb 0dbd
00000240: 393b b8bc 0d73 e13d ed56 373d e59c f13d
00000250: 8901 ab3d 26e2 04be 45d3 20be ddb6 51ba
00000260: 400c b7bb 9a06 0dbd 14ed 993c 1860 81ba
00000270: ed0d 0bbe a51c 9dbc 4b5d 4cbb fade dcbc
00000280: 5d34 45be 10e0 ff3c d48d c03c dd5a a2bd
00000290: 4a1a b7bd 8dbf 8b3c 0b4a a23c 0995 8a3d
000002a0: e446 58bd 2cf3 16be bbe8 efbc 5b59 1b3d
000002b0: 24eb 0bbe c9e0 05be a913 d3bb 9570 d03d
000002c0: e9af 93bd c14d 4cbc 151b 46be a88d 6dbd
000002d0: 548a dd3c 27f8 003d 29ad eb3c c3b1 813c
000002e0: 2e42 0bbe 963c 833b 3968 2c3d f5f5 e8bd
000002f0: d6c2 79bd c570 203d 1e80 38bd 4153 523d
00000300: 4a41 e73b b8c7 44bd c24d d6bd 10a2 c23d
00000310: d13b e9bc e695 973d bbda e5bb f5d0 10be
00000320: 018f ae3d f7ff ccbc c8d6 06bd 6fff a73d
00000330: 161c 873d 3315 ba3c b65f 123d 9d41 13be
00000340: 89bf f4bb ca8b c33d 188d fa3c 7f49 003e
00000350: e467 e5bd 7a0f 563c 883f 643d dc78 3abe
00000360: 2b89 6e3d a57a c13d 4e09 f43d 7c95 26be
00000370: 3df1 c2bd 1fdc 77bc 1669 f9bc 0044 973b
00000380: 90bb 9f3c 1693 ae3d c5d0 b0bd fce3 91bc
00000390: 1145 d03b 69ef f0bd fd17 673d 9361 9c3d
000003a0: af21 233e de77 843d a6e3 c13c 1747 2bbd
000003b0: c480 90bd 70c1 c3bb 3b6d 613d c437 b93d
000003c0: 2f0a 6fbd 909a 05bd d7cb 18bd bdf9 01bc
000003d0: 46dd bbbd 147d 20bd 95fb cfbd d471 77bd
000003e0: 9a97 a5bd 4d61 25bd 0622 ceba 7ee7 4abd
000003f0: a046 c3bd 9d16 7f3c 0f7a a63d e480 eb3d
0.07759822 0.052270982 0.120602906 -0.022667168 -0.0248183 0.014283591 0.091727555 0.08750081
0.115147725 0.031565055 0.123461485 -0.008535917 -0.076967664 -0.036420625 -0.07949319 -0.10631139
-0.051653776 0.029896347 0.079614595 0.031490188 -0.1546785 0.091888785 0.044723447 0.23796456
-0.043835934 -0.09011372 -0.048642382 0.09821076 -0.09079256 0.0140442755 -0.05412639 0.06417829
0.041488335 0.010535865 -0.03314693 0.065123975 0.024267865 -0.031445727 -0.2522716 -0.13684076
0.04033108 -0.005448866 0.074987896 0.010767657 0.10913929 0.053438645 0.14274026 0.00012490628
0.08343231 0.0056174845 0.106644176 -0.011198055 0.08065633 0.12542711 0.00489592 -0.014356802
-0.09183258 -0.029110042 0.040133346 0.078436814 0.06708459 0.029328596 -0.025564581 0.10197909
-0.013528891 0.060965575 0.09790957 0.020386733 -0.06318237 0.11827963 -0.0011654769 0.004603159
0.08992646 -0.10294444 0.057216834 0.053470153 0.050918885 0.018343395 -0.28552157 -0.15962401
0.0091846725 -0.055415187 -0.08666356 0.014300917 0.038114894 0.023987524 -0.0509448 -0.008259352
0.005028203 0.037299 -0.023583889 -0.1252397 0.0910403 -0.011505423 0.04923809 0.06572284
0.04837028 0.068699546 0.009124877 -0.009020878 0.015655035 0.073100455 -0.115262315 0.082836114
0.051339585 -0.034834754 0.032511164 -0.026862074 0.03597406 -0.08969874 -0.045439426 0.0637083
0.027351988 -0.039741736 0.07134315 0.025953282 0.112778775 0.020239595 0.21512283 0.114383824
0.059035372 -0.09991594 0.009107401 0.005846082 0.1114364 -0.00548355 0.17545897 -0.020319602
-0.018306935 0.01141605 -0.03427471 0.08598071 -0.1258213 -0.10421964 0.043903198 -0.030456727
0.08025104 0.09735592 -0.011939266 0.0525658 -0.01884892 0.050022945 0.057386093 -0.034648884
-0.022489177 0.11008272 0.044760633 0.117975034 0.08349902 -0.12976894 -0.15705593 -0.0007999966
-0.005586177 -0.034430124 0.018789805 -0.0009870557 -0.13579531 -0.019178698 -0.0031183537 -0.026961792
-0.19258256 0.031234771 0.023505129 -0.07927487 -0.08940561 0.017059112 0.019810697 0.067667075
-0.05280198 -0.147412 -0.02928578 0.037927013 -0.13663918 -0.1307403 -0.0064415527 0.10177723
-0.072112866 -0.01246971 -0.19346268 -0.057996422 0.027043499 0.031486657 0.028769093 0.015831834
-0.13599464 0.004005025 0.042091582 -0.113750376 -0.060976826 0.039170045 -0.045044057 0.05134893
0.0070573436 -0.04804203 -0.1046405 0.09503567 -0.028470905 0.07401638 -0.0070146 -0.14142211
0.085233696 -0.025024397 -0.032919675 0.08203017 0.06597154 0.022715187 0.03573581 -0.14380498
-0.007469122 0.09548147 0.030584857 0.12528037 -0.11201456 0.013065213 0.05572465 -0.18210167
0.058236282 0.09447221 0.11915837 -0.16267961 -0.09518669 -0.015128165 -0.030445617 0.0046162605
0.019498616 0.08524148 -0.0863357 -0.017808907 0.0063558896 -0.11764414 0.05641936 0.07635798
0.15930818 0.06468175 0.023668122 -0.041815843 -0.0705581 -0.0059739873 0.05503581 0.090438396
-0.05835932 -0.032618105 -0.03730377 -0.007933077 -0.09173064 -0.039181784 -0.10155407 -0.06041129
-0.08085556 -0.040375996 -0.0015726693 -0.049537174 -0.09534955 0.015569356 0.081287496 0.11499193

lavar.encoder.model.0.bias f4 [32]
00000000: 76f6 b0bd 4dab 533e 959c bdbd 09c7 9e3d
00000010: 6e10 06be ecec d0b9 9f0e 23be f703 d23d
00000020: f475 c63d 519a 783c 0b4f 3ebe 64b1 cdbd
00000030: c1e7 883d bc71 a93d bb70 0a3e ff0d 183e
00000040: 312e e3bd ebd8 153f 86fd 54bd 982e e33d
00000050: fb6d 053e cde9 443e caaa 65be 886b f0bd
00000060: 83c7 38be 7650 d23d 4ea5 a63e d6db 2bbe
00000070: 43f5 1b3d 925d d43c fd65 91be cf7b c73d
-0.08640759 0.20670815 -0.09258381 0.07752807 -0.13092205 -0.00039849372 -0.15923546 0.102546625
0.096904665 0.015173511 -0.1858484 -0.100436 0.066848285 0.08273646 0.13519566 0.14849089
-0.11092795 0.58534116 -0.05199959 0.110928714 0.13030235 0.19229813 -0.22428432 -0.1173926
-0.18044858 0.10269253 0.32547992 -0.1678308 0.038075697 0.025923524 -0.28398123 0.097404115

lavar.encoder.model.2.weight f4 [16, 32]
00000000: 5071 7e3d b53f 05bc 35e9 2fbe 03de 0a3c
00000010: b373 14be ed61 3d3b 57d1 90bd 2015 01be
00000020: e310 2fbd af99 883c 7f64 b83d 7589 32bd
00000030: c348 26bd 78a2 693d d431 36bc 121d 003e
00000040: 14df e03a 45ff a33d 9ccf 8abd cd2f 0abe
00000050: 9c1e 1ebb cf55 3c3d 7c55 84bd ad32 4ebe
00000060: fdbf 2ebe a89c 02bd 148a 2a3e d94d fcbd
00000070: ce29 5e3d 5bc0 a5bd ad97 e93b 05ee e93c
00000080: 90b3 06be 6691 f33d ce7f 473d 64e6 ed3d
00000090: bc5b f33c 5961 86bd 60f4 e63c 4d86 e4bc
000000a0: 65e9 143e 39db ef3d 6121 6cbd 1807 653d
000000b0: 44e9 88bd 2409 a13d 1f13 a73d 72aa c6bc
000000c0: 4192 b5bd 1764 ac3c f8f5 933d 0178 223e
000000d0: e388 c0bd f700 593d 63d9 5bbd c171 dbbc
000000e0: 0a25 073e 5f5a 15bd 0f04 97bd c1c3 da3d
000000f0: 4faa 71bd b855 003d 804a 463d 6d6f b9bd
00000100: 6d4b 9abb 0d89 95bd a0c6 93bd af04 dd3b
00000110: 0cf6 fabd 84e6 9e3d 8841 91bd 331e 36bd
00000120: 2022 e33d 3ce7 debd b26d 45bd f9ff 0a3d
00000130: e471 ef3d 0a5f b03c 0f37 6e3d 1478 e9bb
00000140: ae4e 53bd b09c bfba 20a1 073e 7ef2 c4bc
00000150: dcb4 a03d 4106 d3bc d886 b0bd edd9 53bd
00000160: 8bda 123d fd88 3bbc 6238 be3d 90c4 78bd
00000170: 3879 a33d 23f2 193c e58f 5e3d 0e5f e53c
00000180: 9fce 0fbe f947 533d 18a4 073e 5d9a 0b3e
00000190: 168d 3b3d cf0f 83bd a06d 83bd 6a3c c93b
000001a0: 0aff 7a3d c9f3 3b3d 684e 2abe 7b8e fa3b
000001b0: 1921 a03d bc3c fabc caa2 093e 3ec1 ce3c
000001c0: 37ed 54bb d073 cd3d 30c7 cf3d cb13 683d
000001d0: ab9b 8cbc 2071 103d 9e1e f2bd afbb e7bd
000001e0: 5a59 25be 3c1a 9f3d b304 103e 707f 263d
000001f0: b97e 73bd 1a1e bc3d 446d 913d 2b88 623d
00000200: e9b3 29bd a801 ad3d 13e6 2c3c 87e3 30be
00000210: 532d 9d3d 223f 07be b666 e5bd b772 2ebe
00000220: db3b 23be 7a23 50bd 8719 88bd 0fb4 80bd
00000230: e5d7 ba3b 522f 063e f7d3 1ebd 4165 4fbd
00000240: e400 0dbb 5696 20be c9ae 363d df15 0fbe
00000250: 55d5 2a3e 96af b3bd eb33 8d3d b95e 7d3d
00000260: 2528 d5bc 7a54 ac3d 9912 f83d b7e9 ce3d
00000270: 2a2f 13be 3605 013e a818 9abc 9f9b 033e
00000280: 215c f4bb baf2 ca3d c3cb 27be 80c2 ca3d
00000290: ef7f 013d f328 13be ec89 99bd 9b53 f1bc
000002a0: dafa 05be 3685 bebc 75de ee3d 477e e33c
000002b0: 9525 34be 1771 03be e96d c63d 7e6c f63d
000002c0: 5d3d e4bd 3897 b1bd a732 d4bd fa19 2fbe
000002d0: 93df adbd 44db 10be a16a e3bd fd25 9bbd
000002e0: 6a2c ff3c 6116 0abe 5f5e cc3d a226 f43c
000002f0: ea6f 14bd ed6b c7bc 0027 fe3d 7977 833d
00000300: f03d 043b 85d7 7fbd 363c cfbd 25ed 37bd
00000310: a32b 1e3d 7aa2 98bd 6ae0 c63d 6da0 ac3c
00000320: 5273 b9bd 4d8b 6ebb 69b4 50bb df22 74bc
00000330: 691c 1bbd f3e1 a6bd f25b 9bbc 39fd 8e3d
00000340: 7f2a 6d3d 0bbc 0fbc c518 723b b443 cdbd
00000350: 0b4f 143b fde4 333d 34b7 393b e64d 983d
00000360: 148c 203d 31b0 093d 8130 11bc f332 983d
00000370: f1e0 10bd 56bb b53d 4b82 0cbe f530 9c3d
00000380: c652 93bc 1e5e 2d3d 73da 25be f7c6 8c3d
00000390: aaf6 8c3d 42df 24be ed7d aebd 7a00 28be
000003a0: 8874 b03d a697 4a3c 1807 8d3d 5c1e 4fbc
000003b0: 9ce7 093e 4135 1fbe cf64 2abd 7b0f acbc
000003c0: 1403 52bd 3249 8f3d e6e0 86bd acb6 5bbd
000003d0: a9ad 10bd cfa9 0c3e 5bd4 c3bd 06b6 b53d
000003e0: f5a4 da3d 8df1 35be dcae 113d ca0e b6bd
000003f0: d5d7 2cbe 6db4 29be 4d98 d13c f9d1 913d
0.062119782 -0.008132865 -0.17178805 0.008475783 -0.14497261 0.002889748 -0.070711784 -0.12605715
-0.042740714 0.016674845 0.09003543 -0.04358812 -0.040596735 0.057039708 -0.011120278 0.1251109
0.0017156326 0.08007673 -0.067778796 -0.13494797 -0.0024127131 0.04598027 -0.06461617 -0.20136519
-0.17065425 -0.03188768 0.16654235 -0.12319536 0.054239087 -0.080933295 0.007128677 0.02855588
-0.13154435 0.11892967 0.04870587 0.11616209 0.029706828 -0.06561536 0.028192699 -0.02789607
0.14542158 0.11711735 -0.05764902 0.05591497 -0.06685117 0.078630716 0.08157944 -0.024251197
-0.08865786 0.02104382 0.07224649 0.1586609 -0.09401109 0.052979436 -0.053674113 -0.02678764
0.13197723 -0.036463138 -0.07373821 0.10681868 -0.05900031 0.031331748 0.048410892 -0.09054456
-0.0047086985 -0.07301531 -0.07215619 0.006744943 -0.12253961 0.07758811 -0.07092577 -0.044462394
0.11090493 -0.10883948 -0.048200317 0.03393552 0.11691645 0.021529693 0.058157977 -0.00712491
-0.051588707 -0.001461884 0.13245058 -0.02404141 0.07846996 -0.025759818 -0.086194694 -0.051721502
0.03585295 -0.011446235 0.09288098 -0.06073433 0.07982105 0.009396109 0.054336447 0.027999427
-0.14043663 0.05158231 0.1324619 0.13633104 0.045788847 -0.063994996 -0.06417394 0.006141235
0.06127838 0.04588679 -0.16631472 0.0076463795 0.07818813 -0.030546539 0.13441005 0.02523863
-0.0032490024 0.10031855 0.10145414 0.0566595 -0.017164072 0.035264134 -0.11822246 -0.11315095
-0.16147366 0.07768676 0.14064293 0.040648878 -0.059447024 0.09185429 0.07100919 0.05530564
-0.04143134 0.084475815 0.010552901 -0.17274295 0.076746605 -0.13207677 -0.11201231 -0.17035948
-0.15940802 -0.050815083 -0.06645494 -0.062843435 0.005702006 0.13103989 -0.038776364 -0.050633673
-0.0021515423 -0.15682349 0.044600282 -0.13973187 0.16682942 -0.08773725 0.06894668 0.061857913
-0.026020119 0.0841455 0.12112922 0.10103171 -0.1437346 0.12599644 -0.018810585 0.12852333
-0.0074572717 0.09909578 -0.16386323 0.09900379 0.031616148 -0.1437109 -0.0749701 -0.029458812
-0.13083974 -0.02325688 0.11663524 0.027770175 -0.17592461 -0.12836109 0.096889324 0.12032412
-0.111445166 -0.08671421 -0.10361224 -0.17099753 -0.08489909 -0.14146143 -0.11104322 -0.07575605
0.031149108 -0.134851 0.09978937 0.029803578 -0.036239542 -0.024343455 0.124097824 0.06419272
0.002017852 -0.062461395 -0.10118906 -0.044903893 0.038615834 -0.07452865 0.09710772 0.02107259
-0.09055199 -0.0036398948 -0.0031845814 -0.014900892 -0.03786889 -0.08148565 -0.018964741 0.06981892
0.057901856 -0.00877286 0.0036941033 -0.10022679 0.002263012 0.043919552 0.0028337957 0.07436733
0.03919609 0.033615295 -0.008861662 0.07431593 -0.03537077 0.08873622 -0.13721578 0.07626525
-0.017983805 0.042326085 -0.16196613 0.06873887 0.06882985 -0.16100791 -0.08520112 -0.16406432
0.086159766 0.012365257 0.06886119 -0.012641516 0.13467258 -0.15547659 -0.041600045 -0.021003475
-0.051272467 0.06996383 -0.06585865 -0.053641006 -0.035321865 0.13736652 -0.09561988 0.08872609
0.10675994 -0.17767926 0.03556715 -0.088895395 -0.16879208 -0.16572733 0.025585318 0.07120127

lavar.encoder.model.2.bias f4 [16]
00000000: c440 7d3d 512f 2cbe 5f6d 4f3d a011 583e
00000010: de24 98bd c919 71bd 592c f43d 173f 39be
00000020: 00b0 d9bd d26e 3b3e 5800 d33d a65b 513e
00000030: eac8 02be fab7 c3bd 6666 e4bc f50d babd
0.061829343 -0.16814925 0.050641414 0.21100473 -0.07428907 -0.05886248 0.11922521 -0.18090473
-0.106292725 0.18303993 0.103028 0.20445117 -0.12771955 -0.09556575 -0.027880859 -0.09084693

lavar.encoder.model.4.weight f4 [8, 16]
00000000: bed7 68bd c6bc 97bc f9a9 023e 6265 9fbd
00000010: 1a64 b83d 319d c13d b84c 743d 91e3 013e
00000020: 0bfe 0b3e 40ca 4fbe a73c 243e 1f79 f2bd
00000030: 462c 8dbd 7e87 28bd 7f6b 3d3e 326e da3d
00000040: d6e8 94bc 097b 503d 85e9 0abd 4a31 56bd
00000050: 28de 5d3d 5aec 02be faa2 79bd 26e9 7cbd
00000060: ebf1 07bc 2b24 2bbe 203e 9c3d 383f 053e
00000070: 3c21 293e bf3e 9a3d 21fd 4dbe 59ed 53be
00000080: 7985 1d3d 7433 86bd 06a7 d83b 7196 cf3b
00000090: ffe0 9a3c c828 12bb 7327 f93d b747 efbd
000000a0: e551 383e 061a bdbd efd9 51bc 00ad ec3b
000000b0: 9ade a3bc 778e 2bbe 0057 b9bd d6e8 1fbe
000000c0: 9f8f e33b 5fe0 06bd 5c59 343d 0532 f93d
000000d0: c425 aa3c df8f 093e 4673 9fbc 9166 2dbd
000000e0: 112f 6e3c 2b17 93bd 8417 a3bd 0d17 1cbe
000000f0: 93c0 19be 6a86 28be 1d4e 4a3d 6462 c93a
00000100: e066 5abd 9e91 af3d 5ea0 5d3d 6dad 12be
00000110: 5a46 01be ebb6 083e 15d2 49bd c85d 4fbb
00000120: 79a8 1d3e 185c 983d f27c 1a3e 2f1a 53bc
00000130: de68 64bd 18e6 393d ca60 d1bd 4857 f73c
00000140: 3d6f 25be 39cc b03d fc9e 60be 70dd 86be
00000150: bde6 423d 18ce 2ebe 67f2 403b 8bc5 d23d
00000160: fed3 47be 8df5 0a3d cf67 3c3c 6ed3 dcbc
00000170: d2b0 4e3d f5d8 32be a538 c33d 703c 303e
00000180: 49a4 f53d 6d22 1abe a432 f8bd ddd9 a93d
00000190: 30f3 47be 9aa4 23bd 64d7 343e d45e 663d
000001a0: 9503 d8bd 3fd1 063e 5681 263e a75a 6d3e
000001b0: 778c 1bbe 6c31 2f3e 8266 5c3d e909 3dbd
000001c0: 74a2 6bbd 80a3 083c d14d 1fbe d1ea 8dbd
000001d0: 2c7e 69bc d80b 513d 9324 983b 0735 ce3d
000001e0: 3fc2 153d 8f13 963d 0ed8 12be e659 693c
000001f0: 21a4 39be 6a2c 423e b7c8 0c3d b898 0bbe
-0.056846373 -0.018522631 0.12760152 -0.07783009 0.09003468 0.0945381 0.059643477 0.12684466
0.13671128 -0.20291996 0.16038762 -0.11839508 -0.0689321 -0.04114484 0.18498038 0.10665549
-0.018177431 0.050898585 -0.033914108 -0.0522931 0.054166943 -0.12785473 -0.060946442 -0.061745785
-0.008297424 -0.16713016 0.07629037 0.13012397 0.16516584 0.07531499 -0.20116092 -0.2069601
0.038457368 -0.06552783 0.0066117076 0.0063350727 0.018906115 -0.002230214 0.121657275 -0.116836004
0.1799999 -0.09233479 -0.012808307 0.0072227716 -0.020003606 -0.16753565 -0.09049797 -0.15616164
0.006944611 -0.03292882 0.044030532 0.121677436 0.020769961 0.13433789 -0.019464146 -0.042334143
0.014537589 -0.07182153 -0.079634696 -0.15243168 -0.15014867 -0.16457525 0.0493909 0.0015364406
-0.053320765 0.08572696 0.054108016 -0.14323969 -0.12624493 0.13351028 -0.049272615 -0.0031641591
0.15396298 0.074394405 0.15086725 -0.012884661 -0.05576407 0.04538545 -0.10223539 0.030192986
-0.16155715 0.086327024 -0.21935648 -0.26340818 0.04758333 -0.17070806 0.0029441358 0.102915846
-0.19514462 0.03392558 0.011499359 -0.026956286 0.050461598 -0.17465575 0.095322885 0.17210555
0.119942255 -0.15052195 -0.12119034 0.08293507 -0.19526362 -0.0399519 0.1766029 0.05624278
-0.10547558 0.13165759 0.16260275 0.23179112 -0.15190302 0.17108697 0.053808697 -0.04615203
-0.057527974 0.008339763 -0.15557028 -0.06929553 -0.014251273 0.051036686 0.004643032 0.10068708
0.0365622 0.07327949 -0.14340231 0.014242625 -0.18129016 0.18962255 0.034371104 -0.13632476

lavar.encoder.model.4.bias f4 [8]
00000000: 7acf 6dbe 9088 0f3c 2379 873d f073 4bbe
00000010: 8680 c4bc 1110 2e3c ea03 d3bd ea70 5fbe
-0.23223677 0.008760586 0.06614902 -0.19868445 -0.023987066 0.010623948 -0.10303481 -0.21820417

lavar.decoder.model.0.weight f4 [16, 8]
00000000: 76b1 f0bc 721e a9bd 2113 e0bd 7bf9 6d3e
00000010: 6df1 083e 81a0 1bbe fe9f c8bd 9906 063e
00000020: 4fdc 00bf 116a 80bd b493 d8bd 5cfe 5cbe
00000030: f584 bb3e dbfd dc3e 89da 2b3e bf68 a5bb
00000040: b404 123d b629 83bd 77a5 983d 46a5 8d3e
00000050: 6edc ecbd 2740 8ebe 91eb 43bd 8c1f b8bc
00000060: 5aed d3be e6a9 30bf d171 b53e 00d5 a63d
00000070: 69a3 25bf ca11 1dbf c751 5d3f ad72 95bd
00000080: 06b8 13bf 3b7a 1b3f 1b84 0fbf 210f 1abf
00000090: 6382 d43e 8a6e 17bf e5c3 07bf 22d3 ccbe
000000a0: abf4 1dbf 8951 5b3f 5053 4cbf 7508 ecbe
000000b0: f2d9 1c3f a6a0 47bd 8486 43bf 419d 89be
000000c0: fffc c2bd 7454 aebe 33d9 103f d2a3 27be
000000d0: f2c4 28bf b2a5 25bf 85f7 0c3f d523 cdbd
000000e0: 980c 5dbf d2d0 643e b63e 9abe 7d1a afbe
000000f0: 1fc8 a83d b737 a2bf 66e1 813f fd25 0cbf
00000100: 72ca d4be 5748 0f3f 1fa5 43bf 77e6 8abe
00000110: 5927 0d3f 145f 3abf c054 25bf 0aa3 83bd
00000120: 7ced 073e 7fb5 fb3d 78d1 c73e 1041 8a3e
00000130: 679c 73bf 71ec 78bf 18ae 0b3f ed15 33bf
00000140: 2e91 21be cb2f 11bf 27e2 cd3e 7019 acbe
00000150: 5ed4 58be 69e1 213f 841b 1d3f 0bdc 9f3c
00000160: 3a6c 29bf 2ad4 0cba 7276 45bf 51d3 23bf
00000170: 617f 093f b00f 1abe 421a a03e 03d9 753e
00000180: c294 87be 3ce2 893f ae4c eabe ed05 27bf
00000190: fbbb 653f 97a3 a23e d099 88bf 8876 9cbe
000001a0: 7cb9 53bd 229f 8dbe 8437 733e b0c7 04bc
000001b0: 655d b2bd 413e 113e 72ed c6bd ab4c b23d
000001c0: 0361 4ebc 3e67 73be fa42 98be b0de 223d
000001d0: 9a13 c43c dc45 69bc 0f60 373e 5c12 4fbe
000001e0: 5e7f 3c3e fe3d f2bd f4d5 b6be 4b62 e93c
000001f0: 91b5 c3bd 0ccd 73be a969 9b3e 696f ab3e
-0.029381495 -0.0825776 -0.109411485 0.232397 0.13373347 -0.15197946 -0.09796141 0.13088454
-0.50336164 -0.062702306 -0.10575047 -0.21581405 0.36624876 0.43162426 0.16782583 -0.005047887
0.035649016 -0.0640444 0.07453435 0.27665156 -0.11565481 -0.2778332 -0.047832076 -0.02247598
-0.41392022 -0.69009244 0.35438398 0.08146095 -0.6470247 -0.6135527 0.8645291 -0.07297263
-0.5770267 0.60733384 -0.5606095 -0.60179335 0.41505727 -0.59153044 -0.53033286 -0.40004832
-0.6170146 0.8567129 -0.79814625 -0.46100202 0.6127006 -0.04873719 -0.7637713 -0.26877788
-0.095209114 -0.34048808 0.5658142 -0.16371086 -0.65925515 -0.64705956 0.55065185 -0.100166
-0.8634734 0.22345284 -0.3012597 -0.34199896 0.08241295 -1.2673253 1.0146911 -0.54745466
-0.41560704 0.55969757 -0.7642383 -0.27128956 0.55138165 -0.7280133 -0.64582443 -0.064275816
0.13274187 0.12290477 0.39027 0.27002764 -0.95160526 -0.9723578 0.5456252 -0.6995533
-0.15778038 -0.5671355 0.40211603 -0.33613157 -0.21174762 0.63234574 0.6137011 0.019514104
-0.66180766 -0.0005372191 -0.7713386 -0.6399432 0.5370999 -0.15045047 0.31270033 0.24008565
-0.2648068 1.0772166 -0.45761627 -0.6524342 0.8973996 0.31765434 -1.067194 -0.30559182
-0.051690564 -0.2766047 0.23751646 -0.00810425 -0.0870922 0.14183904 -0.09713258 0.087060295
-0.012596372 -0.23769853 -0.297386 0.039763153 0.023935128 -0.014237847 0.17907737 -0.20221847
0.18407962 -0.1182823 -0.35710108 0.028489253 -0.095561154 -0.23808688 0.3035405 0.33483437

lavar.decoder.model.0.bias f4 [16]
00000000: c1dd 88be 73d2 27bc 4bf7 8dbe 580d 6d3e
00000010: 6d80 983d 0abf 9a3e 3865 c03e 3cfb 66be
00000020: 0340 d03c 6902 d63e 57b9 e93e 688b a53d
00000030: ed59 813e a04c 0abe b988 78be bada 32bd
-0.26731685 -0.010243046 -0.27727732 0.23149621 0.0744637 0.30223876 0.37577224 -0.22556776
0.025421148 0.41798714 0.45649216 0.0808323 0.2526392 -0.13505793 -0.24270906 -0.043665625

lavar.decoder.model.2.weight f4 [32, 16]
00000000: b88e 203d 9d40 c43e 0a5e 8c3e ab75 2c3e
00000010: b94d 61bd 9b70 11be 1255 7f3e c543 fc3c
00000020: d246 00be 7eab 44be 952a 153c f005 da3e
00000030: 3202 abbe 3c1f 263d df6e afbc 18c7 d73d
00000040: 00cb 94bb 2637 da3c ac25 78be 8a15 a63e
00000050: 7ad7 7c3d effe a4bd a8c3 ba3e 9966 94be
00000060: f5fc 28be 1fa3 ac3e 38a4 cb3c 1be4 943e
00000070: 7a34 e0bd a838 78be 0693 78bd d98b 1fbe
00000080: 425d 44be e771 79be 4943 743d 3cb7 673e
00000090: 236f 9f3c 4e44 38be fbe6 d63e c6d2 d23e
000000a0: 0b64 f83d 00aa 0d3f dcd5 7bbd 0326 1cbe
000000b0: e749 bcbd c5be 593e 3d08 9fbd 3d41 31be
000000c0: 900d 1dbe e03d 5dbd 169b 4ebe 7cae 1abd
000000d0: 71d7 0abd e15e ab3c 1502 cd3d 7a95 5ebd
000000e0: 7227 78be b269 453e d0c3 953d 7487 1abe
000000f0: 7898 4c3d b889 7f3d 0e43 0ebe 62cb 7c3e
00000100: 700a a43c be6b 873e a20d c9bd 9a93 cabe
00000110: a3a7 fa3e f526 df3e 425c dcbe 6606 68be
00000120: d08e c73e 148d 14be a223 c1be f23c d43e
00000130: 5b2c 2a3f 7040 5cbd ac20 ac3b e05a 45be
00000140: 9a79 343e 3f02 fb3d f7c4 65bd f138 bfbd
00000150: 6db7 9b3e 45eb 363e dadf acbd c5e1 763e
00000160: 5542 073d 1afa a13d 303b 30be f5dc 8c3d
00000170: 3b5f 0e3e a0c3 4f3d 923c 133e 0e91 67be
00000180: 1c56 6f3e c210 14bd 19ed 1e3e 303f d9be
00000190: 1e69 0c3f f8fa ea3e d808 9ebe 9a08 d63c
000001a0: 664a 103f 809d a0be f7b7 3fbe fa11 b33e
000001b0: 1a8c dc3e aa26 543d bcea 65be 4948 063e
000001c0: c6fe 203e 5582 cdbe b13e 0b3c 50a4 cc3e
000001d0: 7e90 273d b462 14be bff6 ba3e 4897 bd3d
000001e0: 9586 a2bc 772c c73e 6264 433e fe41 72bd
000001f0: c784 ccbe 72a9 0c3d d776 9d3d 293b 02be
00000200: 7012 503d 3b41 b53e 5e6a d63d e8b4 cebd
00000210: ab5b 21be 98bd 3fbe 3a81 9c3d a5c1 e8bb
00000220: db08 2fbd 8147 793d f3d5 a93e ef9d 3d3e
00000230: cc33 ca3c a9bc dbbd fac0 35bd d9ec 64be
00000240: dc80 63be ca07 91be b3c2 56be 57cf 69bc
00000250: 8954 c13d dd27 443d b075 703e fe53 373f
00000260: 7e24 8c3e 5f12 a13e 6879 6dbd 8d14 4e3e
00000270: 7773 9fbc a860 833d 6edc 393e 27e7 2e3e
00000280: f89d 0bbe fd7f 90bd 94f0 783e 8211 513e
00000290: fead 7f3e 6739 38be 328d 1d3e 2727 f63e
000002a0: 2da2 af3e bced 2f3e 4d2d 10bf 544a c43d
000002b0: c3ca 12be 7478 993d 2008 b43d 11ac 253e
000002c0: e035 b83c 7d41 ecbd 072c 11bd 241f a73e
000002d0: c077 463e 2878 e4bc c803 b03a c14a 7d3f
000002e0: f9eb a83d 7c0d 133e 6396 75be 8c1f dc3d
000002f0: 8cae ab3c 8ea6 62be 146a 793e 0bac d6bd
00000300: 78de 673d 3ad7 9b3e 2f91 04be ef08 1c3e
00000310: 6078 563e f671 0dbd efa2 b53d 64a8 693f
00000320: d65a ab3e 70dd 32be b947 1c3e 300c eb3e
00000330: 9c8b d6be 2b13 603c bcf7 0e3e 15dc 753e
00000340: 600c a23d 53a1 153e ee21 fb3d 2679 8b3e
00000350: 25f1 883d aa7b 61bd 4282 a03e 2b02 50be
00000360: ef47 b2bd 39dd 823d 5653 fb3e c95b 81bd
00000370: cfc1 973e ed0f 95bd c46a 423e 08f0 38be
00000380: 0cdc e73d eab2 0d3e afee 1d3e 5421 97be
00000390: a60a 3b3e 6bf6 d63e b60c 67be 5a8c 643e
000003a0: 647b 163e 7913 2abe 2113 c5bd e657 f73e
000003b0: 22ce 013f 8ed6 8ebd e634 51be bf5b 393e
000003c0: a863 2dbe aae9 2a3e 5b76 303e ce25 31bd
000003d0: a5a9 3ebe 2a64 2bbc aaf2 3d3e 3ae8 083e
000003e0: 5bac 1c3e 48ea 74bc 39fd 45be 5b96 58bd
000003f0: b7e7 76be fe71 68be a0a8 5dbe 8c17 d3bd
0.039198607 0.38330546 0.27415496 0.16841762 -0.055005763 -0.14203112 0.24934795 0.030794034
-0.12527016 -0.19206044 0.009104391 0.42582655 -0.33400112 0.04055713 -0.021415172 0.10536021
-0.004540801 0.026637625 -0.2423312 0.32438308 0.061728932 -0.08056437 0.364774 -0.28984526
-0.16502745 0.33718202 0.024858579 0.2908028 -0.10947509 -0.24240363 -0.060687087 -0.15580691
-0.191762 -0.24359857 0.05963448 0.22628492 0.019462174 -0.17994806 0.419731 0.41176432
0.12128457 0.55337524 -0.06148325 -0.15248875 -0.09193783 0.21264179 -0.07765243 -0.17310043
-0.15337205 -0.054014087 -0.20176348 -0.037764058 -0.033896867 0.020919265 0.10010163 -0.05434177
-0.24233797 0.19278601 0.07312739 -0.15090734 0.049950093 0.0623872 -0.13892767 0.2468696
0.020024508 0.26449388 -0.098170534 -0.39565736 0.48956022 0.4358441 -0.43039137 -0.22658691
0.38976145 -0.14506942 -0.37722498 0.41452748 0.6647393 -0.05377239 0.005252918 -0.19272947
0.17624512 0.12256288 -0.056096043 -0.093370326 0.3041338 0.17863186 -0.08441134 0.24109562
0.033022244 0.07909031 -0.17210078 0.06878082 0.13903515 0.050723672 0.14378574 -0.22613928
0.23372692 -0.036148794 0.15520133 -0.4243102 0.54847896 0.458946 -0.30866122 0.026127148
0.56363523 -0.31370163 -0.18722521 0.34974653 0.4307564 0.051794685 -0.22452825 0.13113512
0.15722188 -0.40138498 0.0084988335 0.3996911 0.040909283 -0.14490777 0.36516377 0.0925737
-0.019839564 0.3890111 0.19081262 -0.059144966 -0.3994505 0.034341283 0.076886825 -0.1271788
0.050798833 0.3540133 0.10469507 -0.10093099 -0.15757625 -0.18724668 0.076418355 -0.0071031624
-0.042733055 0.060859207 0.33171043 0.18517278 0.024682902 -0.107293434 -0.04437349 -0.22355975
-0.22217125 -0.28326255 -0.2097271 -0.014270625 0.09439952 0.04788958 0.23482394 0.71612537
0.2737159 0.3145933 -0.05797711 0.20125027 -0.019464238 0.0641492 0.18150494 0.17080365
-0.13634479 -0.07055662 0.24310523 0.20416835 0.24968717 -0.17990647 0.15385893 0.48076746
0.34303418 0.17180532 -0.56319124 0.095844895 -0.1433516 0.07493678 0.08790612 0.1617892
0.022486627 -0.115359284 -0.03544238 0.32640946 0.19381618 -0.027889326 0.0013428861 0.9894219
0.08248133 0.14360613 -0.23983149 0.107482046 0.020957254 -0.22133848 0.24356872 -0.10482033
0.056608647 0.30437642 -0.12946008 0.15237783 0.20944357 -0.03453251 0.08868968 0.9127257
0.3346774 -0.17467284 0.15261735 0.45907736 -0.41903389 0.013676445 0.1396169 0.24009736
0.079125166 0.14612322 0.12262331 0.27240866 0.0668662 -0.055049576 0.3134938 -0.20313327
-0.087051265 0.06389851 0.49087018 -0.06316335 0.29640052 -0.07278428 0.1898604 -0.18060315
0.113212675 0.13837782 0.15423082 -0.29517615 0.18265781 0.41984877 -0.22563443 0.22319165
0.14695507 -0.1660899 -0.09622789 0.4830925 0.5070516 -0.06974517 -0.20430335 0.18101405
-0.16932547 0.16690698 0.17232649 -0.043248944 -0.18619402 -0.010460893 0.185496 0.13369837
0.15300123 -0.014948435 -0.19334878 -0.052877765 -0.2411183 -0.22699735 -0.21646357 -0.103072256

lavar.decoder.model.2.bias f4 [32]
00000000: ab5e 813e 03b0 753e 2b83 4c3e 00b2 6fbe
00000010: 6af5 113e 8905 613e 2e7c a53c 8ebb 973e
00000020: 0370 2b3e 6729 e1be b54d efbe a248 71be
00000030: d2a8 4bbe bd85 b63e 7d69 8e3e 4fde 86be
00000040: df35 95be 1c69 d0bd 9059 edbb 6c22 2f3e
00000050: 6e87 0b3e e015 5e3e cc39 6abe 99dd 963e
00000060: 12e3 e73d ad80 3a3c 301b 2c3d c8c7 c7be
00000070: cdcf 79bc 9fb6 70bc fd07 b33e 5bac 0d3e
0.25267538 0.23992924 0.19971912 -0.23407745 0.14253774 0.21974768 0.020200815 0.2963528
0.16741948 -0.439769 -0.46738973 -0.23562863 -0.19888619 0.3564891 0.27814856 -0.26341483
-0.29142663 -0.10176298 -0.0072433427 0.17102975 0.13625881 0.21688032 -0.2287361 0.2946594
0.11322607 0.011383218 0.042018116 -0.39019608 -0.0152472975 -0.014691978 0.34967032 0.1383528

lavar.decoder.model.4.weight f4 [40, 32]
00000000: e1c4 3fbe a544 d4bd 0802 08be 766d bc3d
00000010: f5bd 383e 182a 333e eed0 553e c0df 16be
00000020: a047 94be d34d 933e 11cb 693d bb9e 3c3e
00000030: 7340 ed3e 0b3a b9be 5880 833d 5292 d43d
00000040: 8ef6 a13e d720 82bd df51 f33d 300c 0d3e
00000050: da35 dc3c 78d4 1f3e 7e92 50bd 78bb a5be
00000060: deba 1dbf 70ce 2d3e 4463 b4be 3950 9d3e
00000070: cfd5 893e 6bd2 5fbe 1b6b 25bd 3946 1bbe
00000080: badd 5fbe 3b60 97be 5a06 25be c7b1 81bb
00000090: 67db d63d d9b6 6e3d 6eb2 1b3e 2f04 d13d
000000a0: 4e4c e9bd ebf7 9d3e 8aa6 343e dc5f 353e
000000b0: 5989 d13e 0cc0 9fbe b694 173e e587 c43d
000000c0: 5d26 a33e 23d9 fa3d 8e6d bd3d 8adf 313e
000000d0: 0fd9 1d3e 2d46 773e f4ec c93d 015a c1be
000000e0: 29ea d9be 0fc7 073d cb8e 3fbe 8968 c03e
000000f0: f9ef 5d3e 233c 3fbe 7813 e43c 82d4 70be
00000100: ddd8 93bd f1a2 cbbd 9c82 17be 0239 133e
00000110: 8f23 b23d 018a 653e bee4 1d3d 52c4 49be
00000120: 7efc 1b3d 039c 0a3e 60e7 f8bd 2707 6c3c
00000130: 8a14 733e ea5b 2cbd da7a 2b3e cac3 013e
00000140: 1d49 463e d8cf 743d b4c9 bfbd 6bff 923d
00000150: b531 78bd 5418 aebd 1a50 c6bc a228 24be
00000160: 05fe adbe 2bfd fd3c 4db5 42bd ccb4 293e
00000170: ebba 473e 459b 49bd d0fa 1dbe 6a29 1ebe
00000180: 867a 0d3d c3fa 1a3c 0162 bebd a46a 81bc
00000190: 6353 933e fbf3 2b3d 5654 f33d 1045 24be
000001a0: 221b c9bd 20d8 243e 5dcd 48be b985 bf3d
000001b0: be4d 9aba 4a2c 95bd 833e a03e 4ed6 503d
000001c0: 2a86 743e f4b0 5bbd 696f ae3d 8b71 7c3d
000001d0: 7273 04be d85e 0e3d f66d 093e a0b9 0dbe
000001e0: f289 eebe 5362 293e 0392 153e 053a 01be
000001f0: 6fe7 c83d 9963 8ebc 4efd a83d 8d78 a3be
00000200: 2ab5 1fbd 8224 8ebe 903c 383d 2f06 e1bc
00000210: b09c b0bd 60db 163e 490e ea3d c83d 04be
00000220: 5301 26be a2fe 7d3e 86b7 843e d45d 423e
00000230: 63ae 8b3e f85a ffbd 99dd 7b3e ac4a b73d
00000240: b41e 3b3e e51f 66ba 1e30 30be 7868 743d
00000250: f15e c63d e1a2 1b3d 9503 083e 8a28 e8be
00000260: 3a1c 08bf d73a f1bd 30bc 2fbe 283e af3e
00000270: 58fe aa3e 9a68 ebbd 4748 2c3c bb04 b1be
00000280: c795 1a3d 102b 223d 5c60 15be fb02 ea3d
00000290: fdce 243e 622f 293e c239 93bd 925d 96bd
000002a0: a587 073d 43a3 833e 1150 ad3e 9faf 793e
000002b0: f4e2 bf3d 56d1 67be ea7c 0d3d 0f61 833d
000002c0: 696c ff3d 1421 9a3d 67ca 1f3d 8f9a 4abd
000002d0: 99e3 563e 28bc 843e b050 0b3e 9100 d4be
000002e0: fe56 92be de65 fb3d e18d 71be 53a3 cb3e
000002f0: 9675 dd3e af92 b1bd 8684 4cbe 1418 c2be
00000300: aea9 23bd f841 21be df3d 61bd 0a72 c53d
00000310: ca8a b2bd d55d 6d3e 19e3 443e a01a 56be
00000320: 04fd 84be e8f7 443e f3c7 723e 4a60 1c3e
00000330: 4d46 f13d 8e43 a7be 7a16 e73d 6ca9 42be
00000340: 7083 a83e 37e4 793c 2fce 033e decb 273e
00000350: c78a 973d 956d fd3d 8e1d c63d 2f17 b1be
00000360: 757e cdbe 2004 fabc 1cc2 4dbe 3bc6 b33e
00000370: a726 e13e e416 83bd 3391 38be 449c cbbd
00000380: 0263 ad3d 68e2 41be 9158 36bd cd8a 183e
00000390: fcf2 513c b6f5 503e 3e98 6b3e a3cb 81be
000003a0: 1f1f 9e3c 3223 553e 7fd3 e6bd b4ec 7b3e
000003b0: 34a6 1e3e 9e4b d5bc 8dba f93d 4500 b33d
000003c0: 3d50 123e 6001 f53d 886b fa3d 8df6 e63c
000003d0: ce07 a0bd 0da7 213e bb13 c4bd ec06 d6be
000003e0: cdba d8be e677 04be 6062 d4bd ffee c53e
000003f0: b61f 743e e764 3cbe 7924 f0bd d7fb ecbe
-0.18727447 -0.103646554 -0.13282025 0.092005655 0.18041213 0.17496526 0.20880482 -0.14733791
-0.28960896 0.28770313 0.057078425 0.18419926 0.46338233 -0.36177096 0.06420964 0.10379471
0.3163342 -0.0635392 0.1188085 0.1377418 0.026881147 0.15608394 -0.050920956 -0.3236959
-0.6161326 0.16973281 -0.35231984 0.30725268 0.26920936 -0.21857612 -0.040385347 -0.15163507
-0.21861926 -0.29565606 -0.16115704 -0.0039579603 0.104910664 0.058279846 0.15204784 0.10205876
-0.11391507 0.3085321 0.17641655 0.17712349 0.409251 -0.31201208 0.14802822 0.09596232
0.31865206 0.12248447 0.092494115 0.1737043 0.15414833 0.24147864 0.09859648 -0.3776398
-0.42561463 0.03314882 -0.18706815 0.37579754 0.21673574 -0.18675284 0.027841315 -0.23518565
-0.07219098 -0.09943188 -0.14795917 0.14377216 0.086981885 0.22415926 0.038548224 -0.19703797
0.038082592 0.13536076 -0.12153506 0.014406002 0.23738304 -0.042079844 0.16746083 0.12672344
0.19363828 0.059768528 -0.09364644 0.07177623 -0.06059428 -0.08500734 -0.024208117 -0.16031125
-0.33982864 0.031004509 -0.047536183 0.16572875 0.19504897 -0.049220342 -0.15427709 -0.15445486
0.034540676 0.0094592 -0.092960365 -0.01579792 0.28774557 0.041980725 0.1188132 -0.1604197
-0.09819628 0.1609807 -0.1960959 0.093516774 -0.0011772437 -0.07283838 0.31297693 0.050985627
0.23879305 -0.053635553 0.085173436 0.06163172 -0.12934664 0.03475842 0.13420853 -0.13840342
-0.4658962 0.16541414 0.1460648 -0.12619789 0.098097675 -0.017381476 0.08251439 -0.3192791
-0.03899113 -0.27762228 0.044979632 -0.027468769 -0.08623636 0.14732122 0.11428506 -0.12914193
-0.16211443 0.24804166 0.25921267 0.18981105 0.27281484 -0.12468523 0.24596252 0.089497894
0.18273431 -0.00087785564 -0.17205855 0.05966994 0.096860774 0.03799713 0.13282616 -0.4534343
-0.5316807 -0.11778801 -0.17161632 0.3422711 0.33397174 -0.114945605 0.010515279 -0.34573922
0.037740495 0.03959185 -0.1458754 0.1142635 0.16094585 0.16521981 -0.07188751 -0.07342066
0.033088345 0.25710496 0.33850148 0.243834 0.0936946 -0.22638449 0.034542955 0.06414997
0.124718495 0.075258404 0.039011385 -0.049463805 0.20985259 0.25924802 0.13604999 -0.41406682
-0.28581995 0.12275289 -0.23589279 0.39773044 0.43253773 -0.08670556 -0.19972429 -0.37908995
-0.03995674 -0.15747821 -0.054990645 0.09640892 -0.08717878 0.23180325 0.19227256 -0.20908594
-0.25974286 0.19235194 0.23709087 0.15271106 0.11780987 -0.32668728 0.11283584 -0.19009942
0.3291278 0.015252165 0.12871622 0.16386363 0.073995166 0.12374417 0.09673606 -0.34588
-0.40135542 -0.030519545 -0.20093578 0.35112175 0.43974802 -0.064008504 -0.18024139 -0.09941915
0.0846615 -0.18934023 -0.044518057 0.14896698 0.01281428 0.20406231 0.23007295 -0.25350675
0.01930195 0.20814207 -0.112708084 0.24602014 0.15493089 -0.026037034 0.12193785 0.08740286
0.14288421 0.11963153 0.12227541 0.028193736 -0.078139886 0.15786381 -0.09574076 -0.41802156
-0.42330018 -0.12936363 -0.10370326 0.38658902 0.23840222 -0.18397866 -0.117257066 -0.4628589

lavar.decoder.model.4.bias f4 [40]
00000000: 6019 153c d6b9 15be def2 683d 52b4 b93c
00000010: 8913 2ebe b53d ffbd 0d12 9b3c 0b3a 363d
00000020: 5504 de3d 11aa 993b fe49 bb3d eb51 2c3c
00000030: 54a7 2cbc 32b9 2f3e 5d49 2c3d 2454 2c3d
00000040: 92f3 27bd 9bfd 693c 1e5c 8c3d 8b26 aa3d
00000050: 7d89 123e 08d0 2f3e 3d96 a93d 8b61 37bd
00000060: 9561 893c 5dba 5b3e 001c 383d 357e 20be
00000070: 7a83 33be 58e3 2bbe b97b e73d 2235 54bb
00000080: 1e14 a8bd 0754 243d d15e 6a3e 1876 303e
00000090: 22b1 c4bd 9d63 5d3e f668 843e 19ba 483e
0.009100288 -0.14621672 0.05687224 0.022668991 -0.1699964 -0.124629416 0.018929506 0.044488948
0.1084067 0.004689463 0.09144972 0.010517578 -0.010537941 0.1716049 0.042062152 0.04207243
-0.04100377 0.014281656 0.068535075 0.08308133 0.1431026 0.17169201 0.08280609 -0.04477076
0.016770164 0.2145781 0.044948578 -0.15673144 -0.17530623 -0.16785944 0.11302895 -0.0032380302
-0.08206962 0.040119197 0.22887732 0.17232549 -0.09604098 0.2162003 0.2586133 0.1960224

lavar.dynamics.A f4 [7, 8, 8]
00000000: b098 4a3f 03d3 963c 48a0 08be 927c 68bd
00000010: f027 273d b045 e5bd e69c 073d ce37 dd3a
00000020: e474 23bd 30a4 5d3f 0d7f 063d aae9 453d
00000030: 252b eabc d74b d3bc e61d 113e cc68 003c
00000040: cde2 71be 21f6 b73d 8faa 613f fa3c fbbd
00000050: eda2 093e d601 abbb 95e3 9dbd 9fdc 643c
00000060: 4fe5 f5bd 730c b83d a123 56bd 856b 543f
00000070: 4a1c a73d 1c7d 26bb b94c 403d b810 e8bb
00000080: e48b f33d 60b9 d6bd 3cdb 523e 8c88 463e
00000090: c740 403f 6405 04be dcee 063e 58e0 57bd
000000a0: 8f82 e4bd 3cb9 a63d b126 07bd 543d 113d
000000b0: 0b34 b8bd 2cba 063f cdb2 ad3d 2356 66be
000000c0: d4be a53d b1a3 7f3e 9392 00be a35e 753c
000000d0: cfd7 223e 0871 c23d 3b23 1f3f 42f2 c2bd
000000e0: dbbc e0bb 8f97 203c 764b 62bb ace8 e73c
000000f0: 5e23 9ebc 9855 11be d785 1a3c 3eed 6b3f
00000100: 7ed6 683d ecb7 6b3d 07c1 433d c3d1 3c3c
00000110: 6663 a6bb bc4c 9f3d 6105 bfbd ae70 d23c
00000120: 4131 05bd 6198 053d fe55 f1bc d890 5dbd
00000130: 1e35 3bbb ac62 b3bc 0cf3 6bbd d42c 55bc
00000140: 68ef 8a3d 28e5 913c edb6 ae3b 70c6 903c
00000150: 5fed a1bd c7c1 623d 876f 8f3c bc10 013c
00000160: 6707 823d 888c 33bd fad3 fc3b 05d8 94bd
00000170: 4d36 c13d a15e e73b 2110 88bd 9878 4d3c
00000180: 79a1 92bd 1b95 c33d f1e6 d0bd 650e 02be
00000190: efa4 be3d 6637 a5bd eb95 53bd 85a3 593c
000001a0: 5c50 4f3d b8d3 b9bb ec5d 583c e38c 0ebd
000001b0: 3252 55ba a02b 063e 26b8 02bd 4b56 7c3d
000001c0: 9fcd a1bd 82dc 69bd 8880 283d b7b5 84bd
000001d0: 2087 6bbd d7df 42bd 8923 013e 41d2 4e3d
000001e0: 9c5b 173d ddb9 72bd 050c ab3c 0a2d 5b3d
000001f0: 38e3 4ebd fee5 f53d 6372 2abd 4f84 273d
00000200: 9ffc ff3c 2144 25bd da34 683c e900 cebc
00000210: 177a 31ba b5f5 9e3c ae7a 47bc 0e3e b8bd
00000220: be03 2dbd 19e0 cd3c a7ce b5bb 5e09 9fbd
00000230: ed53 c83c ec99 aa3c 135a 6c3d c5f3 9a3c
00000240: 2067 14bc b00a 8d3d e8a7 97bd b763 4cbc
00000250: c6a7 27bd 01de 84bd 2218 f5bd 26c2 183d
00000260: a557 323d c60c 203c 6eb2 4cbd f254 4c3d
00000270: e80d 493d 3b98 d43c c04e 82bc fa00 503d
00000280: e304 4ebc fe05 4cbd d768 41ba c45a 51bd
00000290: d53c f3bc 71d2 98bc 17c6 d23d 1fbf fa3c
000002a0: f2e5 d33b 3dc7 4b3c 0e84 cbbc 8f6c 9e3c
000002b0: cd68 1e3d a850 a2bc ecbb c63c 0315 50bc
000002c0: acd9 4b3d d6df babd ff07 963d f1e8 1c3c
000002d0: 09d6 56bd cb29 043b a55e 1f3e e61e 88bc
000002e0: b687 083d 8299 163b e8b9 7abc 127c f43b
000002f0: b990 913d f1a5 803b 966e 75bd c28e 993c
00000300: fe9b a4bc 1b5a febc ab01 04bc db07 ba3c
00000310: 2787 613d fa54 b03d 4b58 2dbd ad4c 77bd
00000320: ad6b b5bd 38a5 a0bc 4f02 913b 7c80 14bd
00000330: 6d8c 803d 7fac 56bd 4864 bf3c 8909 ff3c
00000340: 7ad9 9bbc 756f 50bd 181b 0e3d 8dae 02bc
00000350: 2e12 d2bd c2da 84bd f179 153d e3db 2bbb
00000360: 5400 cfbc 874e 4e3c 5c29 973d 1796 b1bd
00000370: fb46 36bd ad5c 22bd dfaf 063e d71c f43c
00000380: 23ae 39bc 1dff a63c ae6c 3bbd 6903 67bd
00000390: 58a8 063b 14d1 2abc 8376 c5bd 2857 8abd
000003a0: a3a8 8dbc ab77 0bbd eca5 743c 5c92 26bd
000003b0: 63c3 663a 6877 333d e12e ad3c 1346 a63d
000003c0: 6a37 0dbd f055 a2bc f886 5dbc b432 c3bc
000003d0: 31c3 2f3d 3b8e ba3c 8190 44bd 20b0 32b9
000003e0: 398f ffbc e015 3c3d 23b4 433c aecb 1d3d
000003f0: bcd3 b13b 7abb 133b ef64 853b c730 5fbc
0.7913923 0.018411165 -0.13342392 -0.056759425 0.04080957 -0.111949325 0.033108614 0.0016877593
-0.039906397 0.86578655 0.03283601 0.048318543 -0.028585026 -0.025793 0.14171562 0.0078374855
-0.23621674 0.08982492 0.88150877 -0.1226749 0.13441058 -0.0052187247 -0.077094235 0.013968616
-0.12006628 0.089867495 -0.052280072 0.8297656 0.081596926 -0.002540416 0.04694817 -0.007082071
0.118919164 -0.10484576 0.20591444 0.19388026 0.7509884 -0.12892681 0.13177055 -0.052704185
-0.111577146 0.081407994 -0.032995883 0.035458878 -0.089943014 0.52627826 0.08481369 -0.22493796
0.08093038 0.24964787 -0.12555914 0.014976176 0.15902637 0.09494215 0.6216313 -0.09518863
-0.006858451 0.009801759 -0.0034529842 0.028309189 -0.019303974 -0.14192808 0.009431324 0.9215888
0.05684518 0.05754845 0.047791507 0.0115246205 -0.005077767 0.07778308 -0.09327198 0.025688495
-0.032517675 0.032616023 -0.02945995 -0.054093212 -0.0028565596 -0.021897636 -0.057604834 -0.013011176
0.06783944 0.017809466 0.005331865 0.017672747 -0.07906603 0.05536058 0.017509235 0.007877525
0.06349068 -0.043835193 0.0077156993 -0.07267765 0.09434185 0.007060841 -0.06643701 0.012540959
-0.07159705 0.09549924 -0.102002986 -0.12700804 0.09308802 -0.08067207 -0.051656645 0.013283615
0.050613746 -0.005670991 0.0132059865 -0.03480233 -0.0008137553 0.13102579 -0.0319139 0.061605733
-0.07900547 -0.05709506 0.041138202 -0.06479972 -0.057501912 -0.04757675 0.12611212 0.050493483
0.0369526 -0.059259284 0.020879755 0.05350975 -0.05050966 0.12006758 -0.041612994 0.040897664
0.031248389 -0.040348176 0.014172757 -0.025146918 -0.0006770207 0.019404272 -0.012175245 -0.08996211
-0.042239897 0.025131272 -0.0055483165 -0.077654585 0.024454081 0.020825349 0.05770309 0.018915066
-0.00905779 0.06886804 -0.074050725 -0.012474946 -0.040931486 -0.064876564 -0.119674936 0.03729453
0.043540616 0.00976867 -0.04997485 0.049885698 0.049085528 0.025951495 -0.015906692 0.05078218
-0.012574407 -0.049810402 -0.0007377988 -0.05111195 -0.029692093 -0.018655034 0.10291689 0.030608712
0.0064666206 0.012437639 -0.024843242 0.019338874 0.038674165 -0.01981385 0.02425953 -0.012700322
0.049768135 -0.091247246 0.07325744 0.009577022 -0.052450214 0.0020166512 0.15563448 -0.016616296
0.03333255 0.0022979681 -0.015303113 0.0074610794 0.07107682 0.0039260318 -0.059919916 0.01874483
-0.020093914 -0.031048825 -0.008057038 0.022708824 0.055060532 0.08609958 -0.04232053 -0.060375858
-0.08858428 -0.019610032 0.004425324 -0.036255345 0.06276784 -0.0524106 0.023363248 0.031132476
-0.0190246 -0.050887544 0.034693807 -0.007976186 -0.10257374 -0.06487037 0.036493246 -0.0026223592
-0.025268711 0.012591965 0.073809355 -0.086712055 -0.044501286 -0.039639164 0.13153027 0.029798908
-0.011333021 0.02038532 -0.045757942 -0.056399737 0.0020547118 -0.010425825 -0.09641745 -0.06754905
-0.017292326 -0.03404967 0.014932137 -0.040666923 0.00088029186 0.043815047 0.021140518 0.08118834
-0.034476675 -0.019816369 -0.013520949 -0.023827888 0.04291076 0.022772899 -0.047989372 -0.00017041015
-0.031196224 0.0459193 0.011944803 0.038524322 0.005426852 0.0022542165 0.00407087 -0.013622469

supply_head.model.0.weight f4 [64, 8]
00000000: a9c4 97be 4253 a63e 3d0a c9be 2000 71bd
00000010: 1c53 f4bc a2ab fabe 5269 dc3e f83d cebe
00000020: a34c 38bc 7e43 25be ae84 2fbe 69b7 c5bc
00000030: 15b7 d9bd 226d 8c3d 7401 3abe 6be3 0e3e
00000040: 5ba3 af3e a645 8b3d c55b 8bbd ba9b 40be
00000050: 9b03 173e 0413 8d3d 313b 30be 4712 a9be
00000060: 7c3e 14be 9ce6 c43e c5cc a7be caf6 c1bc
00000070: 7d0f 223f 6eb3 ea3e 462d 2d3e 3e31 2b3e
00000080: b7ec a83e 5f9d 77be 58cb 82be 3d5e 5ebe
00000090: a2bc 8dbe 885d 62be f301 99be 0c95 85be
000000a0: f01d e0bb 69d8 26be 900d 4b3e 6e6b a2be
000000b0: 6d64 f5bb b043 cdbd 7e5c 9cbe 6edb 773d
000000c0: 486d 913e 02be cbbd ebaa c6bd 6bfe 80be
000000d0: a7fb 8cbe 8d9a 733e 2f5d 33be 97c6 7e3e
000000e0: e4f9 9fbe 6b60 a9be 0a45 b33e a1ff cfbe
000000f0: 5a7a 2dbf e751 20bd 7635 a53b bd34 a33e
00000100: 936e fa3d 65ba 6e3e 0682 853e eb4d 46bd
00000110: 3ab4 62be f3c0 01be 5fb2 62bc 05e5 6bbe
00000120: 066c 26be fd4b 7dbd 6ee8 913d 9d7d 043d
00000130: ae79 b13e 28d1 973e 56e1 5dbe 1ec3 3dbe
00000140: a042 aa3e 7ab4 b23e 72f7 1b3d 2b94 273c
00000150: 8c16 1c3e 39ce a2bd e39e 1e3d 59a3 8ebb
00000160: d56c bcbe c73a 83bc 209e f4be 5a1a babc
00000170: 7e3c e13d a053 b2be c856 473f 5383 273e
00000180: 0b21 8bbe 79f8 3dbe a568 e2be a4e7 82be
00000190: 6368 db3d c492 753e d853 0f3f 6daa 29be
000001a0: df26 9f3d 7901 dfbe 5c03 f53e 1faa d6be
000001b0: 8308 eebe b717 05bf 7624 a23d 697e 0bbe
000001c0: dd81 82be 23cc f33e f0e3 c0bd daaa 6fbd
000001d0: 1c1b 703f 1ad9 943e 6b68 193f 895e 4c3e
000001e0: 6a2f 263e 5c46 e13e b446 7fbe 9c7a b63e
000001f0: 483e 063f 2c69 d9be 4a35 373d 9345 3f3e
00000200: 9e55 673e 6257 c5be b93c 0e3e 3bc3 7a3e
00000210: e3c1 793d 9caf 31bd 6e16 fd3d c8c1 3b3e
00000220: 54f5 99be 4438 903d 3baf 7dbe 1b17 a3bd
00000230: ac7b a23e 16d6 e7be 87b9 19be f577 84be
00000240: c813 163d df51 b23e c77a c53e c5d5 a7be
00000250: 28d3 0bbf 8294 0ebf 6ee5 6abc 2cfc a13d
00000260: e513 51be caf3 adbe c2d0 94be f725 b03d
00000270: 0e39 a0be c128 623e 706c 3a3e 3185 993e
00000280: 9094 983e 509b 853e aef0 b2be 6556 453e
00000290: 3452 173f 6789 0a3f 3ed0 833e beae 673e
000002a0: f72d 5d3e c303 0cbd 25a6 84be a1ef 85be
000002b0: 9c7e 333f 4373 a43e 7ab7 d33e 17b7 64be
000002c0: 090e 1bbe c13b cc3e 71d8 debe 9ac5 db3d
000002d0: 0741 9dbe c6ef 12bf d30c a23d d94a 9abe
000002e0: e80e a0be cb7c e8be 464a 463e 9b5b 0a3e
000002f0: 1c56 d2be a1ad 1e3d af81 ef3e 7ede 2dbe
00000300: 8329 dcbe 48cf 9abe 8cba 4f3d fdbc a9bd
00000310: 9286 28bf b253 203d b57c d13e 265f 07be
00000320: 66a7 13be a416 083e 0b2b 6c3d 73e9 a53e
00000330: ea5e 64be d2b7 a1bd 8d91 aebe c17d 09be
00000340: a9f4 5b3d 4c2d 6b3d 2d31 6f3e 6fa5 9ebe
00000350: 5ae9 7f3d 5c33 963e 1c61 1cbf 8e89 a2bd
00000360: cf61 fabb ad35 b539 0edd 09be a18c 88be
00000370: a823 383f 4d56 0cbe c0d9 a9be aa53 3abe
00000380: a265 1e3e 017f 54bd 2445 b0be 0cc8 783d
00000390: d150 81be bba3 2abe 6298 67be de84 b33e
000003a0: a377 8a3e 237a b43d 47bf 4bbe bdac debd
000003b0: b2e2 8fbe 66dc 7abe de73 37be 44c7 273e
000003c0: 801f 65be 27e4 073f bc97 ddbe 79f5 c63e
000003d0: 56ee e93e 2674 9fbe ada2 25be 184f 563e
000003e0: 65d4 daba 6be2 393e 5651 323e 2e81 79be
000003f0: df96 f93e 237d f93e 1223 dabe 4f22 c93e
-0.29642227 0.32485396 -0.39265624 -0.05883801 -0.029824786 -0.4895907 0.43049103 -0.40281653
-0.01124874 -0.16139027 -0.17140457 -0.024135308 -0.10630623 0.06856753 -0.18164617 0.1395394
0.34304318 0.06800394 -0.06804613 -0.18809405 0.14747469 0.068883926 -0.1721008 -0.33021757
-0.14476961 0.3845719 -0.32773414 -0.023677249 0.63304883 0.4584002 0.16911802 0.16718003
0.329931 -0.24181126 -0.25545764 -0.21715637 -0.27682978 -0.22105992 -0.298843 -0.26090276
-0.0068395063 -0.16293491 0.19829392 -0.31722587 -0.0074887783 -0.10022676 -0.30539316 0.060512
0.28403687 -0.099483505 -0.09700569 -0.25194106 -0.27535746 0.23789425 -0.17516015 0.24880444
-0.3124534 -0.33081374 0.3501361 -0.40624717 -0.6776482 -0.03914061 0.0050417734 0.31876174
0.122281216 0.23313291 0.26075763 -0.048414152 -0.22139063 -0.1267126 -0.013836472 -0.23036583
-0.16252145 -0.061840046 0.071244106 0.032346357 0.34663147 0.2965176 -0.2166799 -0.18531463
0.33253956 0.34903318 0.03807778 0.010228197 0.15242976 -0.0794949 0.038725745 -0.0043529687
-0.36801782 -0.016019238 -0.4777689 -0.022717644 0.10997866 -0.34829426 0.7786679 0.1635869
-0.27173647 -0.18551816 -0.44220462 -0.25567353 0.107132696 0.23981768 0.5598731 -0.16568919
0.07771086 -0.4355581 0.47854125 -0.41926667 -0.4649087 -0.5198931 0.079171106 -0.1362244
-0.25489703 0.4761668 -0.09418476 -0.058512546 0.93791366 0.29071885 0.59924954 0.19957937
0.16229025 0.43998992 -0.24929315 0.3564042 0.52438784 -0.42463052 0.044728555 0.18678884
0.22591254 -0.3854323 0.13890351 0.24488537 0.06097592 -0.043380365 0.12357794 0.1833564
-0.30069983 0.07041982 -0.24773876 -0.079633914 0.3173498 -0.45280522 -0.1501218 -0.2587277
0.03663996 0.34828088 0.38570234 -0.3278028 -0.54619074 -0.55695355 -0.014336927 0.07909426
-0.20417745 -0.3397506 -0.2906552 0.08600991 -0.3129353 0.22085859 0.18205428 0.2998443
0.29800844 0.26095057 -0.3494925 0.19271238 0.59109807 0.5411591 0.25744814 0.22625253
0.21599565 -0.034183275 -0.25908008 -0.26159385 0.70115066 0.32119188 0.4135092 -0.22335468
-0.15142073 0.3988934 -0.43524507 0.10731049 -0.30713674 -0.57397115 0.07912602 -0.3013523
-0.31261373 -0.4540771 0.1936427 0.13511507 -0.4108132 0.038739804 0.46778628 -0.16979405
-0.4300042 -0.30236268 0.050715014 -0.08288 -0.6583034 0.039142318 0.40915456 -0.1321989
-0.14419326 0.13289887 0.057658236 0.3240467 -0.22301832 -0.07896389 -0.3409542 -0.13426878
0.053700123 0.057416245 0.23358603 -0.3098559 0.0624784 0.2933606 -0.6108568 -0.07936393
-0.007641054 0.00034563002 -0.13463232 -0.2666979 0.7192941 -0.13704796 -0.33173943 -0.18195978
0.15468457 -0.051878933 -0.3442775 0.060737655 -0.2525697 -0.1666402 -0.22616723 0.35062307
0.270444 0.08812358 -0.19897185 -0.10872791 -0.28102642 -0.24498138 -0.17915294 0.16384608
-0.22375298 0.5308251 -0.43279827 0.38859156 0.45689648 -0.31143302 -0.16175337 0.2092861
-0.0016695379 0.18152778 0.1741384 -0.24365684 0.48747918 0.48728284 -0.42604882 0.39283988

supply_head.model.0.bias f4 [64]
00000000: c18c 43be 7723 0bbe b345 b1be cf5e ab3e
00000010: 3a33 b0be ea2a 63be c1a6 98be a9bd 0c3e
00000020: 64fd 45be 9611 abbe d87c 98bd a3e1 f83c
00000030: c749 333d b18e 4cbe 93d9 483c 26bb 743e
00000040: 3b2c a63e f7c5 2f3e ed5a cc3d f249 86be
00000050: 8409 d53e 6efd a43e 12f7 20be f888 eebd
00000060: d231 90be 760e abbe 378f 893e 93b6 e03d
00000070: 89fd 54bc 04ea 99be ac44 d63d 649f 6a3e
00000080: 7e03 85be e2e5 7f3e a8dd 63be 3258 d73d
00000090: 342f 83be 1a88 64be c688 70bd 80c2 82be
000000a0: da27 33bd 264d 453e 36a5 133e 8964 733e
000000b0: 8c51 e9bd 573d 5e3d 3a41 90be 2bd5 183e
000000c0: 4376 843b 5023 dc3c 9045 eeba 76d0 633e
000000d0: 9b38 7cbe 20a0 863e d9e4 6f3e b45f 823c
000000e0: 372a 5cbd 1a39 5e3e 3e5d 8b3d 1d70 32bd
000000f0: e576 2d3e 328a 023e 4112 8b3d bc07 8cbe
-0.19096662 -0.13587748 -0.3462349 0.3347077 -0.34414083 -0.22184339 -0.29814723 0.13744225
-0.19334942 -0.33411855 -0.07445687 0.03038103 0.04377153 -0.19976307 0.012258905 0.23899516
0.3245562 0.17165361 0.0997828 -0.2622829 0.41608822 0.32224602 -0.1571925 -0.116472185
-0.2816301 -0.3340947 0.26867077 0.10972323 -0.012999901 -0.30061352 0.10462317 0.22912365
-0.25979227 0.24990037 -0.22252524 0.10514869 -0.2562195 -0.22317544 -0.058724187 -0.25539017
-0.043739177 0.19267711 0.14418492 0.2376882 -0.11392507 0.054257717 -0.28174764 0.14925067
0.004042418 0.026872307 -0.001817869 0.2224749 -0.24630968 0.2629404 0.23427142 0.015914775
-0.053751197 0.2170147 0.06804894 -0.04356395 0.16939886 0.1274803 0.06790591 -0.2734965
