lavar_best.pth (torch, 22517 bytes, 13 tensors)

encoder.model.0.weight f4 [32, 40]
-0.07667065 -0.05027074 0.10091441 -0.07495921 0.12424543 -0.118850596 0.12838587 -0.03328715
-0.029475873 -0.044498645 0.13101691 0.05839521 0.05193815 0.036814574 -0.03748296 -0.06478274
-0.008363974 0.13310792 0.012910135 -0.109958254 0.16365662 0.14694066 -0.11870482 0.0057242867
0.008001047 0.0900243 0.14148377 0.1172319 -0.04071494 -0.14090571 0.073903546 -0.13868952
0.13121612 0.025064917 0.08117598 0.045991797 0.10454641 0.15626566 -0.11650974 0.14493525
0.089425296 0.09275741 0.08706146 0.123120934 -0.051978286 0.0146194445 -0.06545383 0.008104806
-0.005617724 0.14121547 0.12048246 -0.10161569 0.1398707 -0.081053674 0.007531892 -0.08117095
0.11090522 -0.13281226 -0.040855102 -0.055383325 0.045147814 -0.10662475 -0.08819055 0.011258342
0.10126659 -0.023790339 -0.043150485 -0.050834477 0.07068856 -0.04288115 0.07982843 0.07714338
0.11884318 0.11932646 0.088804394 0.05267841 0.096389055 0.13953462 -0.044407558 -0.12061301
-0.15235244 0.05083538 -0.04048504 0.044569857 0.038966447 0.029096587 0.034563437 0.101081565
-0.061713688 0.12916474 0.09333045 0.08736651 -0.006332024 0.0887494 -0.12269757 -0.14311315
0.10754034 0.10481312 -0.03262358 -0.024523877 -0.113886856 -0.09167685 0.04029966 0.11894156
-0.07586831 0.068903364 -0.09906466 0.0034791226 0.016330466 -0.022292832 0.035476502 -0.081264965
0.042688817 -0.056229528 -0.10982059 0.062765144 0.037652552 -0.025257193 0.015001854 0.13022086
0.0037824286 0.12841658 -0.04924256 -0.051435232 0.016209116 0.1412721 0.051504724 0.110605225
0.12800433 0.1461142 0.0026280778 -0.004368269 0.060235184 0.039241362 0.028090233 -0.10355085
-0.024225922 0.06767212 -0.051674455 0.06677556 -0.047453213 -0.12394069 -0.12873076 -0.062273923
0.14824714 0.032735333 0.056436762 -0.103807956 -0.07278897 0.12566537 0.13689914 0.052811503
-0.023345958 0.081506446 0.103375174 0.13564493 0.049832996 0.023867317 -0.09388284 -0.14195205
-0.11193266 0.023901641 -0.14034013 -0.008591613 -0.1227533 0.15571332 0.116247475 0.11341613
-0.14158796 0.10630786 0.02024643 0.05181533 -0.050249666 0.09618518 0.018761706 0.100407906
-0.062370054 -0.028815186 -0.1339696 -0.09670339 0.09558561 0.08887632 0.05950067 -0.13153845
0.10744922 0.070343904 -0.08940812 -0.10625182 0.033073448 0.1110467 -0.01920735 0.16596046
0.14747931 -0.04280552 0.033263415 -0.073541895 0.15142518 -0.10709214 -0.09240345 -0.026851704
-0.10765143 -0.014866931 0.07156945 0.052076187 -0.09994962 0.024315916 -0.09775478 -0.096036874
-0.1144519 -0.122229755 0.04694125 -0.040900253 0.038427938 -0.034145325 -0.14417884 -0.13669214
0.09187429 0.06776966 0.09064263 -0.031833198 0.090311304 -0.13941821 0.010785901 -0.038244754
0.13232234 -0.061513115 -0.093741305 0.14243509 -0.004157391 0.045829073 0.15701127 -0.023957875
0.0077999257 0.016217094 0.07320267 0.06358929 0.045352627 0.04512299 0.06679788 -0.013412224
0.11635842 -0.1447953 -0.019318705 0.13356355 -0.030621553 -0.0233805 0.0006565106 0.012654978
-0.018564196 -0.0443949 -0.016971456 0.1430634 0.08357077 -0.08997473 -0.057021324 0.08726073
00000000: 8005 9dbd b1e8 4dbd 37ac ce3d 3784 99bd
00000010: 6374 fe3d f167 f3bd 9677 033e 1b58 08bd
00000020: 6377 f1bc 3644 36bd 4c29 063e d12f 6f3d
00000030: 19bd 543d e1ca 163d bb87 19bd d0ac 84bd
00000040: 0d09 09bc 714d 083e 0885 533c cb31 e1bd
00000050: 9a95 273e 9d77 163e 831b f3bd cc92 bb3b
00000060: d316 033c a95e b83d 1fe1 103e 4717 f03d
00000070: b5c4 26bd 9649 10be be5a 973d a004 0ebe
00000080: 855d 063e f154 cd3c 983f a63d e561 3c3d
00000090: 6e1c d63d 1b04 203e a99c eebd e869 143e
000000a0: 9c24 b73d 99f7 bd3d 474d b23d d426 fc3d
000000b0: 2fe7 54bd 6586 6f3c a80c 86bd 05ca 043c
000000c0: e214 b8bb ca9a 103e 82bf f63d e31b d0bd
000000d0: 443a 0f3e 78ff a5bd 17ce f63b f43c a6bd
000000e0: 4722 e33d f0ff 07be ae57 27bd a0d9 62bd
000000f0: eaec 383d 145e dabd 3f9d b4bd e974 383c
00000100: dc64 cf3d f5e3 c2bc 90be 30bd d037 50bd
00000110: 2ac5 903d 25a4 2fbd 177d a33d 59fd 9d3d
00000120: 0e64 f33d 6e61 f43d 14df b53d 51c5 573d
00000130: a067 c53d 2ae2 0e3e b3e4 35bd f403 f7bd
00000140: 4702 1cbe c238 503d a4d3 25bd e28e 363d
00000150: 489b 1f3d f75b ee3c 6492 0d3d da03 cf3d
00000160: 7ec7 7cbd c343 043e 0924 bf3d 36ed b23d
00000170: de7c cfbb 3fc2 b53d dd48 fbbd 418c 12be
00000180: 1c3e dc3d 43a8 d63d 4ea0 05bd 4ce6 c8bc
00000190: 833d e9bd 13c1 bbbd 4211 253d a297 f33d
000001a0: d860 9bbd 351d 8d3d 6ae2 cabd fe01 643b
000001b0: 78c7 853c 759f b6bc cf4f 113d 3f6e a6bd
000001c0: 78da 2e3d ef50 66bd 9ee9 e0bd 038b 803d
000001d0: 9039 1a3d 2ce8 cebc 56ca 753c 9e58 053e
000001e0: 9fe2 773b a37f 033e 91b2 49bd c0ad 52bd
000001f0: fbc8 843c a2a9 103e 9ef6 523d fe84 e23d
00000200: 9113 033e f69e 153e d43b 2c3b b223 8fbb
00000210: 2bb9 763d 8dbb 203d 7d1d e63c 7812 d4bd
00000220: 7175 c6bc ae97 8a3d 98a8 53bd a0c1 883d
00000230: 4d5e 42bd 9ed4 fdbd ffd1 03be f112 7fbd
00000240: 19ce 173e 7c15 063d 3c2a 673d 4499 d4bd
00000250: 6212 95bd 6cae 003e 4a2f 0c3e e050 583d
00000260: 0640 bfbc daec a63d 5db6 d33d 81e6 0a3e
00000270: af1d 4c3d 6485 c33c a545 c0bd e15b 11be
00000280: f33c e5bd 60cd c33c 53b5 0fbe d6c3 0cbc
00000290: 1566 fbbd 5073 1f3e 2813 ee3d b746 e83d
000002a0: 6ffc 10be efb7 d93d d7db a53c 503c 543d
000002b0: 98d2 4dbd bcfc c43d 26b2 993c a9a2 cd3d
000002c0: be77 7fbd d30d ecbc 542f 09be 6d0c c6bd
000002d0: 63c2 c33d ca04 b63d f9b6 733d 04b2 06be
000002e0: 560e dc3d 7710 903d 9b1b b7bd 8e9a d9bd
000002f0: 0678 073d 746c e33d bc58 9dbc 8af1 293e
00000300: d104 173e d754 2fbd 383f 083d 229d 96bd
00000310: 340f 1b3e 2053 dbbd 053e bdbd 1bf8 dbbc
00000320: 5a78 dcbd 6e94 73bc 0193 923d d74d 553d
00000330: 63b2 ccbd 2c32 c73c a833 c8bd fbae c4bd
00000340: c265 eabd 9853 fabd 7845 403d 0687 27bd
00000350: 9d66 1d3d f8db 0bbd 9ea3 13be 06f9 0bbe
00000360: 9628 bc3d d2ca 8a3d d8a2 b93d 8763 02bd
00000370: 22f5 b83d a6c3 0ebe 59b7 303c 88a6 1cbd
00000380: 827f 073e 2df5 7bbd 71fb bfbd 81da 113e
00000390: b93a 88bb 44b7 3b3d 90c7 203e 4e43 c4bc
000003a0: 8596 ff3b b6d9 843c 48eb 953d 1a3b 823d
000003b0: adc3 393d e2d2 383d 54cd 883d f2be 5bbc
000003c0: 534d ee3d 3845 14be 4342 9ebc e2c4 083e
000003d0: 0dda fabc 7688 bfbc ae19 2c3a d356 4f3c
000003e0: f113 98bc 6dd7 35bd b907 8bbc 367f 123e
000003f0: 2727 ab3d ac44 b8bd 318f 69bd c1b5 b23d

encoder.model.0.bias f4 [32]
0.10645639 0.11631633 -0.0787504 -0.08350447 0.15379219 -0.10919259 -0.13531655 0.043780014
-0.019494142 0.16007118 -0.07905507 -0.17538767 -0.05360154 -0.055285223 -0.14833836 0.026720589
-0.13375445 -0.1173529 0.025789427 0.09800523 -0.060069554 -0.06665878 -0.12357941 0.007164696
-0.11347594 0.06610376 -0.118464984 0.1656961 0.100309506 -0.08928867 0.026749395 -0.1572736
00000000: cf05 da3d 4237 ee3d e447 a1bd 6404 abbd
00000010: b37b 1d3e 5da0 dfbd 6c90 0abe ac52 333d
00000020: 2eb2 9fbc b3e9 233e a0e7 a1bd d398 33be
00000030: 4a8d 5bbd c272 62bd 03e6 17be 23e5 da3c
00000040: edf6 08be b856 f0bd 5944 d33c f7b6 c83d
00000050: 7e0b 76bd 6684 88bd 3417 fdbd d4c5 ea3b
00000060: 1366 e8bd 6861 873d c59d f2bd 3dac 293e
00000070: 126f cd3d fadc b6bd 8c21 db3c 550c 21be

encoder.model.2.weight f4 [16, 32]
-0.122137584 -0.14983395 -0.123063736 -0.01001525 -0.13772477 0.07883315 0.065888196 -0.091353446
0.003949679 0.013293887 -0.17030223 0.11369706 -0.072392456 -0.08768369 -0.04298666 0.065252654
-0.09971262 -0.060596902 -0.09364365 -0.14300366 -0.16233347 -0.15288752 -0.1048088 0.12227788
0.089549914 0.04417298 -0.14844035 0.05087867 -0.12587568 -0.119043216 -0.08006927 -0.07954683
-0.15586923 0.120551355 -0.07385624 -0.030696062 0.09074086 0.13236642 0.1060732 -0.12781619
-0.053708278 -0.14541785 -0.11897995 -0.02461515 -0.10613868 0.1093808 -0.07507909 0.012695225
0.074053876 -0.049034167 0.09805991 0.13089812 -0.05672172 -0.09605375 0.08087202 -0.12522522
-0.05904724 -0.15958413 0.09215245 0.008982703 -0.16813467 -0.12943342 0.120752454 -0.07386975
0.019118205 -0.04457114 -0.08517707 -0.11986595 -0.046577707 0.0703632 -0.09542871 -0.046254735
0.14333053 -0.18451735 -0.17027313 0.07111561 -0.020083025 -0.14104395 -0.09507885 0.0009265394
0.13543549 -0.099614605 0.07843393 -0.1436942 -0.0429151 0.061053563 -0.060873948 0.03183645
0.010586274 0.12498052 -0.1367827 0.05267364 -0.037933417 -0.055442464 0.11960239 0.033133477
-0.19012788 0.024336139 0.06372997 -0.14240524 0.00496207 -0.027789397 0.0142754065 0.1381691
-0.01742426 -0.113941975 -0.15981382 -0.060024958 -0.030326255 -0.028876184 0.06364233 -0.00095794105
-0.0013797502 0.053667627 0.096047826 -0.003786549 -0.08140133 -0.0857888 0.12817954 0.11735945
0.15434258 -0.1459892 0.114513285 -0.10991985 -0.027843969 0.031803332 -0.02296735 0.064706914
0.096805565 -0.1588626 0.09464902 0.087110505 0.08989606 -0.09181179 -0.061314505 -0.12592253
0.06764165 -0.11247405 0.13738216 -0.09172264 -0.1489205 -0.032760005 0.013348533 -0.14482313
-0.016457114 -0.15707764 -0.14251207 0.022306863 0.14230937 0.13209866 -0.15159462 -0.006066347
0.10581083 0.00452737 0.123011224 -0.17826152 -0.040376887 0.08792456 -0.15551817 -0.037454966
-0.157255 -0.067822725 -0.12640499 0.12842023 -0.026517872 0.074269556 0.01487288 -0.06417589
-0.030053621 -0.10036008 0.09216562 0.14463884 -0.108871005 0.057031572 0.14418364 -0.037967462
0.08545975 -0.040638283 -0.18866807 0.06858975 0.05365902 -0.1221763 -0.036855653 0.07508481
-0.14733881 -0.17254412 -0.067549005 -0.11111314 -0.13019031 0.03900697 0.050465815 -0.12896514
-0.024869267 0.08321755 -0.07076906 0.046964016 -0.07300183 -0.16204265 -0.020854319 -0.19075081
0.08271688 0.08961295 0.13843013 0.05655274 0.14539106 -0.16179748 0.029468821 -0.15595758
-0.15581402 0.11788074 0.123041846 -0.13901211 -0.17001393 -0.14793564 -0.09281875 -0.14162777
-0.08108871 -0.16072595 -0.059217013 0.08515134 0.12516911 -0.06250675 0.05275355 -0.097460754
0.14653026 -0.02513554 0.011490801 0.025842926 0.15565148 0.060423892 -0.12756987 -0.01024401
0.100912966 0.11327581 -0.1515826 0.0527941 -0.097920224 0.03204131 -0.13615318 0.0040480965
-0.118997 -0.012761714 0.046670344 -0.12618016 0.047652233 0.109348744 -0.08399874 0.1370501
0.0002891593 0.11094833 0.09618141 0.04695823 0.08188544 0.02589447 -0.009214888 -0.06823341
00000000: 4523 fabd 126e 19be d708 fcbd 0117 24bc
00000010: b907 0dbe 4673 a13d 64f0 863d 8417 bbbd
00000020: 4f6c 813b 9ace 593c b563 2ebe 01da e83d
00000030: 7f42 94bd 8293 b3bd c812 30bd 2fa3 853d
00000040: 2136 ccbd 7534 78bd 3ec8 bfbd 8d6f 12be
00000050: bf3a 26be 8c8e 1cbe ffa5 d6bd d36c fa3d
00000060: f265 b73d baee 343d bf00 18be 2766 503d
00000070: 8ee5 00be eecc f3bd 5cfb a3bd 73e9 a2bd
00000080: 2f9c 1fbe a1e3 f63d f141 97bd 4f76 fbbc
00000090: 58d6 b93d 108b 073e e83c d93d 3fe2 02be
000000a0: 36fd 5bbd 6be8 14be c3ab f3bd b6a5 c9bc
000000b0: 3c5f d9bd 0a03 e03d 11c3 99bd a2ff 4f3c
000000c0: 8fa9 973d 0dd8 48bd a2d3 c83d 280a 063e
000000d0: 0955 68bd d4b7 c4bd 3ba0 a53d 0a3b 00be
000000e0: 85db 71bd 066a 23be 6cba bc3d 302c 133c
000000f0: 7f2b 2cbe 328a 04be 104d f73d 0649 97bd
00000100: c89d 9c3c 3a90 36bd 5171 aebd 477c f5bd
00000110: 44c8 3ebd 951a 903d 2170 c3bd 9b75 3dbd
00000120: 3dc5 123e 1ef2 3cbe 145c 2ebe 10a5 913d
00000130: 2885 a4bc d36d 10be b3b8 c2bd 02e3 723a
00000140: 9aaf 0a3e be02 ccbd f8a1 a03d 9324 13be
00000150: bec7 2fbd 4d13 7a3d f656 79bd f066 023d
00000160: 0d72 2d3c c9f5 ff3d c410 0cbe 51c0 573d
00000170: 1260 1bbd a317 63bd 19f2 f43d f8b6 073d
00000180: e2b0 42be 955c c73c dc84 823d aed2 11be
00000190: dc98 a23b 97a6 e3bc 65e3 693c 337c 0d3e
000001a0: 52bd 8ebc 695a e9bd 3ca6 23be bbdc 75bd
000001b0: c46e f8bc bf8d ecbc e956 823d 561e 7bba
000001c0: bcd8 b4ba 96d2 5b3d b9b4 c43d c027 78bb
000001d0: beb5 a6bd 0ab2 afbd 7f41 033e 275a f03d
000001e0: fb0b 1e3e 317e 15be f185 ea3d a91d e1bd
000001f0: 0919 e4bc 3644 023d 0626 bcbc 0f85 843d
00000200: ff41 c63d e1ac 22be 58d7 c13d fe66 b23d
00000210: 6d1b b83d d207 bcbd eb24 7bbd d6f1 00be
00000220: b587 8a3d cb58 e6bd e9ad 0c3e 14d9 bbbd
00000230: 9e7e 18be 5b2f 06bd ceb3 5a3c 844c 14be
00000240: 12d1 86bc f6d8 20be afee 11be e2bc b63c
00000250: 8cb9 113e df44 073e 9f3b 1bbe 35c8 c6bb
00000260: 59b3 d83d 555a 943b 4fed fb3d 308a 36be
00000270: 3c62 25bd cb11 b43d 2840 1fbe 616a 19bd
00000280: 7407 21be a4e6 8abd 4f70 01be 9880 033e
00000290: 023c d9bc a31a 983d 61ad 733c a66e 83bd
000002a0: 0333 f6bc 9689 cdbd 54c1 bc3d 341c 143e
000002b0: c3f7 debd f099 693d e0a4 133e c583 1bbd
000002c0: 8505 af3d 5474 26bd 3432 41be c878 8c3d
000002d0: 90c9 5b3d 9137 fabd f4f5 16bd 11c6 993d
000002e0: fcdf 16be 68af 30be 2257 8abd 498f e3bd
000002f0: 9c50 05be c6c5 1f3d 3eb5 4e3d 700f 04be
00000300: a2ba cbbc f66d aa3d 5eef 90bd 575d 403d
00000310: fc81 95bd 82ee 25be add6 aabc 2e54 43be
00000320: 7867 a93d ff86 b73d a1c0 0d3e d9a3 673d
00000330: 65e1 143e 3dae 25be 9968 f13c 58b3 1fbe
00000340: b68d 1fbe 756b f13d 5dfd fb3d 3159 0ebe
00000350: 2218 2ebe 717c 17be c217 bebd df06 11be
00000360: d611 a6bd 5895 24be 8a8d 72bd d363 ae3d
00000370: 552c 003e 8a03 80bd 1b14 583d 8199 c7bd
00000380: 070c 163e 0ce9 cdbc ea43 3c3c 8bb4 d33c
00000390: 1a63 1f3e 0b7f 773d ada1 02be 7ed6 27bc
000003a0: 75ab ce3d 26fd e73d 7838 1bbe a03e 583d
000003b0: 668a c8bd c03d 033d bd6b 0bbe e5a5 843b
000003c0: b3b4 f3bd 8216 51bc 6729 3f3d 5f35 01be
000003d0: fd2e 433d 3cf2 df3d 8807 acbd dd56 0c3e
000003e0: 4e9a 9739 e138 e33d c2fa c43d 4657 403d
000003f0: 8eb3 a73d a420 d43c 0bfa 16bc f5bd 8bbd

encoder.model.2.bias f4 [16]
-0.09966749 -0.0017119774 0.027215382 -0.089711815 -0.037073404 0.13186836 -0.0028200704 0.12729564
0.030464921 0.07269419 -0.08744755 0.1457287 -0.1723408 -0.06636802 -0.012761428 -0.15177076
00000000: 781e ccbd 6e64 e0ba cbf2 de3c d4ba b7bd
00000010: 48da 17bd 8008 073e eed0 38bb ca59 023e
00000020: 9291 f93c b1e0 943d b317 b3bd e839 153e
00000030: 1b7a 30be f5eb 87bd 4f15 51bc cb69 1bbe

encoder.model.4.weight f4 [8, 16]
-0.22685388 -0.057913493 -0.10029055 -0.17136723 0.052530915 -0.049114697 -0.028751917 -0.06985465
-0.090497546 -0.13133916 -0.22368589 0.18728594 0.059488665 0.03701538 0.11410963 -0.21931285
-0.055146694 0.02646398 -0.08989636 -0.2071758 0.15146385 0.21910863 -0.10847754 0.0051830728
0.22281894 -0.054398116 0.17873144 0.17460468 0.08307769 0.11314669 0.06564087 -0.19303988
-0.14418232 0.05875535 -0.05906695 -0.16559513 -0.06885217 -0.17742686 -0.15770607 -0.22142525
-0.08347773 -0.13828748 0.1882702 -0.10152124 -0.09032324 0.22995064 -0.11693854 -0.044965733
0.07293233 0.0020503663 0.08035638 -0.18441087 -0.19870563 -0.10344724 -0.07381425 0.22132444
0.044771004 -0.12695284 -0.099261686 0.04154163 0.18219097 0.22157288 -0.021727385 0.121162
0.12037034 -0.09082866 0.06648903 0.16839099 0.12434764 0.14897165 0.15394765 0.063690566
0.21108872 -0.19014831 -0.04436203 0.18682125 0.121535115 -0.11263159 -0.036797483 0.039113462
-0.022177566 -0.14428006 0.11788772 0.022144964 -0.036323227 0.11051814 0.051433437 0.007139873
0.19490546 0.1606274 -0.093526706 0.117084816 -0.109182514 0.01675844 0.055569373 -0.051784102
-0.002741574 0.07982475 -0.015460629 0.02086612 -0.061782893 0.06562033 0.10976102 0.14248662
0.08341107 0.06445779 -0.0010548881 -0.11559205 0.0574122 -0.21096368 0.16836302 -0.048589043
0.012536015 -0.05652599 0.1895741 -0.028164733 0.22487025 0.16884026 -0.07609214 -0.18583982
0.10142529 -0.10102674 0.111552216 0.016261026 -0.16804387 0.074546635 0.21036106 -0.16191831
00000000: 624c 68be b336 6dbd 2265 cdbd e47a 2fbe
00000010: a82a 573d 7e2c 49bd 2489 ebbc f40f 8fbd
00000020: c756 b9bd c67d 06be ea0d 65be e3c7 3f3e
00000030: 63aa 733d 709d 173d 4fb2 e93d 8c93 60be
00000040: 80e1 61bd fdca d83c 951b b8bd e525 54be
00000050: 5719 1b3e 035e 603e 7929 debd c4d6 a93b
00000060: a62a 643e 8fd0 5ebd 6005 373e 92cb 323e
00000070: a324 aa3d 74b9 e73d b86e 863d 3fac 45be
00000080: 88a4 13be 73a9 703d 30f0 71bd c591 29be
00000090: 5e02 8dbd 63af 35be b37d 21be 4dbd 62be
000000a0: 5ff6 aabd 3c9b 0dbe e7c9 403e 5eea cfbd
000000b0: 64fb b8bd 2e78 6b3e 797d efbd fd2d 38bd
000000c0: 8c5d 953d 705f 063b e391 a43d 34d6 3cbe
000000d0: 7d79 4bbe 26dc d3bd ed2b 97bd e0a2 623e
000000e0: cd61 373d edff 01be b649 cbbd 8e27 2a3d
000000f0: 4590 3a3e 00e4 623e a1fd b1bc c823 f83d
00000100: ba84 f63d 6004 babd 672b 883d b06e 2c3e
00000110: faa9 fe3d 068c 183e 74a4 1d3e 3370 823d
00000120: a427 583e 3db6 42be f6b4 35bd 124e 3f3e
00000130: 67e7 f83d 64ab e6bd f5b8 16bd 7035 203d
00000140: baad b5bc 27be 13be 1e6f f13d 5b69 b53c
00000150: aac7 14bd 5657 e23d deab 523d 99f5 e93b
00000160: 4c95 473e 827b 243e ee8a bfbd 2aca ef3d
00000170: 159b dfbd ff48 893c b69c 633d 911b 54bd
00000180: fbab 33bb 297b a33d 944e 7dbc 6def aa3c
00000190: 0f10 7dbd f463 863d 63ca e03d 03e8 113e
000001a0: 6cd3 aa3d 7202 843d 2c44 8aba 86bb ecbd
000001b0: 0e29 6b3d dd06 58be 5b67 2c3e 4e05 47bd
000001c0: dc63 4d3c cc87 67bd b61f 423e bab9 e6bc
000001d0: 6344 663e 76e4 2c3e 32d6 9bbd cb4c 3ebe
000001e0: 10b8 cf3d 1ce7 cebd 7d75 e43d d835 853c
000001f0: b113 2cbe e8ab 983d e468 573e eacd 25be

encoder.model.4.bias f4 [8]
0.041585777 0.055283245 -0.09115837 -0.15461314 -0.15177484 -0.1888803 -0.087248266 0.18153384
00000000: d955 2a3d af70 623d 3db1 babd e852 1ebe
00000010: dd6a 1bbe d669 41be 38af b2bd 02e4 393e

decoder.model.0.weight f4 [16, 8]
-0.060928293 -0.2741673 -0.22716363 0.25268382 -0.117185704 -0.058577333 0.34129208 0.30413982
-0.034051955 -0.29437754 -0.258221 -0.021875588 -0.34219977 -0.105234936 -0.14901926 -0.079361014
0.34104025 0.07136138 0.30863023 0.13876705 0.1676251 -0.1519409 0.21870458 0.018554643
-0.25248766 -0.097634085 -0.34602016 -0.31923345 -0.03796926 0.14498566 -0.10389757 -0.09636061
0.08863709 0.060636412 0.29094002 -0.16997276 0.35319984 0.29049575 0.1632643 0.09933113
0.23608837 -0.15749918 0.03839686 0.23811968 0.25278324 0.26622063 0.25950015 -0.07777338
-0.3117614 0.3421502 0.30118495 0.3376192 0.31837118 -0.03675829 -0.31179464 0.2581976
-0.30242127 -0.2738841 0.13705464 -0.050189044 0.1264041 -0.30391294 -0.34553418 -0.25633466
-0.091864936 -0.07785349 -0.3292306 -0.14505482 0.1472347 -0.09062746 -0.15103222 0.033692043
-0.33322933 0.32255512 -0.29368898 0.27327248 0.29361984 -0.11898547 -0.12553956 0.00746233
-0.3448049 0.038699023 0.2580829 -0.27216783 0.33581078 -0.021112114 -0.009870286 0.2513828
-0.08198669 -0.28688797 -0.047833372 0.07255034 -0.20013718 0.08757985 -0.25172746 0.029141778
0.3417277 0.12809195 0.1213755 0.34139612 -0.13108298 -0.05928224 -0.16107096 0.0024565712
-0.19202222 0.18576114 -0.1884837 0.13757052 0.25141463 0.09334039 -0.28029293 0.24415252
-0.14980896 0.18257493 0.099023014 -0.22577192 0.050325543 -0.041480765 -0.17323233 0.038080778
-0.10283498 -0.31253594 0.24611403 -0.21838823 -0.09180738 0.33650887 -0.033096362 0.19962935
00000000: f28f 79bd a85f 8cbe 959d 68be c65f 813e
00000010: 0fff efbd c9ee 6fbd d6bd ae3e 37b8 9b3e
00000020: 107a 0bbd a7b8 96be 8b35 84be 6f34 b3bc
00000030: cf34 afbe 6a85 d7bd 8198 18be 0788 a2bd
00000040: d49c ae3e ea25 923d c804 9e3e f318 0e3e
00000050: eaa5 2b3e 6596 1bbe 18f4 5f3e e8ff 973c
00000060: 1046 81be 61f4 c7bd 8e29 b1be 9172 a3be
00000070: a885 1bbd 1f77 143e 40c8 d4bd b658 c5bd
00000080: 5d87 b53d e35d 783d 17f6 943e 570d 2ebe
00000090: 9cd6 b43e dcbb 943e c22e 273e 1f6e cb3d
000000a0: 26c1 713e 7747 21be 0746 1d3d a5d5 733e
000000b0: ce6c 813e 124e 883e 34dd 843e a647 9fbd
000000c0: 319f 9fbe 502e af3e ea34 9a3e 6cdc ac3e
000000d0: 8c01 a33e dc8f 16bd 8ca3 9fbe 7a32 843e
000000e0: f6d6 9abe 893a 8cbe 0d58 0c3e 0793 4dbd
000000f0: 1470 013e 7a9a 9bbe dbe9 b0be 4c3e 83be
00000100: af23 bcbd a771 9fbd ea90 a8be 4089 14be
00000110: b1c4 163e e49a b9bd 31a8 1abe ab00 0a3d
00000120: 099d aabe f225 a53e 675e 96be 5fea 8b3e
00000130: 5755 963e a7ae f3bd 718d 00be 9086 f43b
00000140: 458a b0be de82 1e3d 7123 843e 9559 8bbe
00000150: 64ef ab3e 50f3 acbc fbb6 21bc 3fb5 803e
00000160: a3e8 a7bd fbe2 92be edec 43bd 4695 943d
00000170: c3f0 4cbe 105d b33d 6ce2 80be bdba ee3c
00000180: eff6 ae3e 892a 033e b893 f83d 79cb ae3e
00000190: 9e3a 06be efd1 72bd c9ef 24be 6dfe 203b
000001a0: 79a1 44be 2b38 3e3e df01 41be 49df 0c3e
000001b0: 6bb9 803e 3f29 bf3d 8e82 8fbe 1e03 7a3e
000001c0: 8567 19be ecf4 3a3e 94cc ca3d c130 67be
000001d0: 2822 4e3d bce7 29bd d163 31be 97fa 1b3d
000001e0: 259b d2bd b604 a0be 5105 7c3e 2aa1 5fbe
000001f0: 8205 bcbd e44a ac3e 0d90 07bd a36b 4c3e

decoder.model.0.bias f4 [16]
-0.16946918 0.21537791 0.15074605 -0.1464886 0.1946265 0.05871068 -0.19122547 0.28092086
-0.039860796 0.25134084 -0.29329082 -0.0153963845 -0.29182073 -0.3228236 0.10420331 -0.2284261
00000000: 5489 2dbe 078c 5c3e 2c5d 1a3e 1c01 16be
00000010: 2b4c 473e 9c7a 703d 9cd0 43be dcd4 8f3e
00000020: 1345 23bd bfaf 803e 372a 96be 1e41 7cbc
00000030: 8769 95be 2349 a5be 8c68 d53d 88e8 69be

decoder.model.2.weight f4 [32, 16]
0.049302965 -0.16360366 -0.14167187 -0.12761328 -0.2282517 0.18079424 0.17439032 -0.13424861
0.00025880337 0.13215765 -0.04863271 -0.07760322 -0.17386732 -0.061041623 0.06306651 -0.20811608
-0.1255094 -0.077831626 0.2495744 0.16426909 0.24342358 0.045603063 0.24299565 0.25356227
-0.005533779 -0.17419678 -0.18880412 -0.08060295 -0.15125075 -0.037584692 -0.060079146 0.14414302
0.097001515 -0.0678994 0.08236161 -0.1205977 -0.18212074 0.13181223 -0.15717393 -0.24850316
-0.08272713 -0.24692674 0.0647423 -0.15204541 -0.1718784 -0.047988147 -0.065482415 -0.04137841
-0.004428086 0.034130793 -0.23584798 0.1213207 -0.15154798 0.03953558 -0.063096404 -0.23984972
0.18740687 -0.021789124 0.20835564 0.20539391 0.22967994 -0.08170253 0.021120433 -0.13254169
0.23407431 0.23799141 0.1849464 -0.011274322 -0.06293098 0.08419803 -0.22292605 0.08457803
0.009321621 0.16090983 -0.04775694 0.05087382 0.14626318 0.15937999 -0.10683852 0.06506902
-0.08670191 0.042715378 0.23590565 0.059490718 -0.1433339 0.08401883 -0.004977554 0.0954707
-0.21415153 -0.1261271 0.17577395 -0.052830715 0.009180576 0.14678892 0.11052206 -0.11978853
-0.14123571 -0.078282386 -0.1331464 0.002685994 0.18179432 -0.043419868 0.18541798 -0.22355574
-0.1528596 -0.19071957 0.10673931 0.16888815 -0.01190421 0.24140689 -0.049420357 -0.20838764
-0.06272391 -0.09736394 0.07536049 0.122066036 0.10871413 0.000202005 -0.04022163 -0.057334535
0.034881312 0.046928447 0.14380848 -0.17739601 0.17505741 0.048007667 0.042266864 0.060211837
0.24385501 -0.19474748 -0.13961723 0.083993934 -0.089832395 -0.17324674 -0.013762355 0.13736805
-0.25603747 0.14271179 -0.22214067 -0.021025445 -0.038439125 0.035473734 -0.18311337 -0.0489074
-0.14025083 -0.21751204 0.20191616 -0.16724175 -0.18352157 -0.07478312 -0.22848374 0.028460413
-0.1583637 -0.086479634 -0.19093782 0.1764451 -0.14241877 0.009025335 -0.026245803 0.21494937
0.14025623 -0.14203003 0.015710965 0.031213311 -0.005049132 -0.17024359 -0.027261913 0.12888311
-0.13842914 0.11873201 0.104124695 0.091108 0.11765528 0.17247927 -0.15427768 0.086295396
0.2464647 -0.029159943 0.049442455 -0.22134674 0.23328397 0.039545797 0.23564172 0.023765843
-0.26347443 0.10583697 0.059920788 0.031963646 -0.2160052 -0.030621529 0.18210647 -0.20748761
-0.037223965 -0.14168665 -0.14112288 0.19081709 -0.18923399 -0.2331649 0.07527369 0.0048274696
-0.22020102 0.03569129 0.17015794 0.23199108 0.047234714 0.14567205 -0.06967819 0.17584482
0.21803108 0.11164315 -0.19418764 0.12523513 0.21184438 0.23856372 -0.037324995 0.14021488
-0.13912019 0.22497335 -0.042620778 0.17240328 -0.1840789 -0.24701348 0.21729143 -0.11344758
0.049364805 0.040842384 0.1813856 -0.05900218 -0.23587568 0.061874542 0.056244195 0.09666723
0.063779384 0.042832803 0.19757599 0.17668512 0.17577815 -0.1860305 0.013629167 0.017207861
0.23331687 -0.16978578 -0.10300684 -0.20663464 0.25077102 0.16420425 0.04599434 0.00140368
-0.12633443 -0.23967527 0.0882974 0.10512633 -0.16077337 -0.0036159158 -0.22936386 -0.08528897
00000000: e8f1 493d b887 27be 6e12 11be 0ead 02be
00000010: d0ba 69be 2022 393e 6093 323e 7878 09be
00000020: 00b0 8739 5654 073e 1833 47bd 70ee 9ebd
00000030: 460a 32be c806 7abd 0429 813d 621c 55be
00000040: 8985 00be 3066 9fbd 6e90 7f3e 2836 283e
00000050: 0844 793e 47ca 3a3d dad3 783e ead2 813e
00000060: b454 b5bb a460 32be de55 41be 2913 a5bd
00000070: 7ae1 1abe 68f2 19bd 8d15 76bd 3a9a 133e
00000080: bba8 c63d d70e 8bbd 34ad a83d edfb f6bd
00000090: dc7d 3abe c9f9 063e 34f2 20be 9d77 7ebe
000000a0: d76c a9bd 5dda 7cbe 9c97 843d cbb1 1bbe
000000b0: e400 30be 388f 44bd a51b 86bd 687c 29bd
000000c0: 7a19 91bb bbcc 0b3d 2282 71be fd76 f83d
000000d0: 652f 1bbe 0ff0 213d b038 81bd 2a9b 75be
000000e0: 96e7 3f3e 1b7f b2bc 2e5b 553e c852 523e
000000f0: 3831 6b3e a853 a7bd c204 ad3c 02b9 07be
00000100: 2db1 6f3e 05b4 733e 9762 3d3e efb7 38bc
00000110: f5e1 80bd 0470 ac3d ba46 64be 3f37 ad3d
00000120: b6b9 183c 8cc5 243e c89c 43bd 1161 503d
00000130: 04c6 153e 8234 233e 27ce dabd e842 853d
00000140: c590 b1bd 52f6 2e3d 4091 713e 8aac 733d
00000150: 1fc6 12be 1012 ac3d c01a a3bb 2486 c33d
00000160: 8a4a 5bbe 7627 01be 16fe 333e 0565 58bd
00000170: 206a 163c d64f 163e 6459 e23d b053 f5bd
00000180: 18a0 10be 8452 a0bd 8857 08be 8007 303b
00000190: 4a28 3a3e 08d9 31bd 36de 3d3e cceb 64be
000001a0: 3a87 1cbe fe4b 43be 249a da3d 04f1 2c3e
000001b0: e009 43bc 5e33 773e 006d 4abd 9263 55be
000001c0: 6575 80bd bf66 c7bd 9a56 9a3d c2fd f93d
000001d0: 84a5 de3d 4ed1 5339 70bf 24bd 9ed7 6abd
000001e0: b5df 0e3d 0b38 403d 8842 133e 4da7 35be
000001f0: 4042 333e b0a3 443d 0520 2d3d b0a0 763d
00000200: 21b5 793e e26b 47be d2f7 0ebe 0305 ac3d
00000210: 0cfa b7bd 9867 31be 807b 61bc 36aa 0c3e
00000220: 5817 83be 0a23 123e d878 63be 8e3d acbc
00000230: 5872 1dbd e84c 113d 1282 3bbe 2053 48bd
00000240: ea9d 0fbe 7abb 5ebe 1cc3 4e3e 6c41 2bbe
00000250: 14ed 3bbe e427 99bd a4f7 69be d025 e93c
00000260: 182a 22be 3c1c b1bd 3485 43be 06ae 343e
00000270: 3ad6 11be 00df 133c 7001 d7bc b01b 5c3e
00000280: 549f 0f3e 5270 11be 48b4 803c 0fb3 ff3c
00000290: 3073 a5bb 5654 2ebe 6054 dfbc eff9 033e
000002a0: 5ec0 0dbe c529 f33d 543f d53d d596 ba3d
000002b0: 40f5 f03d 689e 303e f8fa 1dbe a4bb b03d
000002c0: 3e61 7c3e d5e0 eebc 2c84 4a3d b8a8 62be
000002d0: fee1 6e3e c6fa 213d 104c 713e 96b0 c23c
000002e0: 1fe6 86be 0ec1 d83d 806f 753d 50ec 023d
000002f0: 7830 5dbe 00da fabc 1e7a 3a3e a277 54be
00000300: 2878 18bd 4e16 11be 8482 10be 8e65 433e
00000310: 8ec6 41be c8c2 6ebe 1829 9a3d c02f 9e3b
00000320: 607c 61be 0831 123d e23d 2e3e 128f 6d3e
00000330: 3079 413d 0e2b 153e 70b3 8ebd aa10 343e
00000340: 8a43 5f3e 2aa5 e43d 20d9 46be a33d 003e
00000350: bced 583e 0c4a 743e 18e2 18bd 7d94 0f3e
00000360: 8675 0ebe 6a5f 663e 2093 2ebd 7c8a 303e
00000370: 2e7f 3cbe 1af1 7cbe a581 5e3e 3457 e8bd
00000380: c032 4a3d 584a 273d 26bd 393e 45ac 71bd
00000390: 6589 71be 2970 7d3d 5060 663d 78f9 c53d
000003a0: c49e 823d 7371 2f3d 5c51 4a3e f2ec 343e
000003b0: 30ff 333e c87e 3ebe df4c 5f3c 80f7 8c3c
000003c0: 9eea 6e3e 53dc 2dbe 40f5 d2bd 0898 53be
000003d0: 0f65 803e 2925 283e 9064 3c3d affb b73a
000003e0: d05d 01be 6f6d 75be 44d5 b43d 794c d73d
000003f0: c6a1 24be 00f9 6cbb 5cde 6abe fcab aebd

decoder.model.2.bias f4 [32]
-0.24390635 0.0785255 0.19944377 0.20852637 0.1851127 -0.008504168 -0.12163797 0.19060704
0.20038177 0.0047281384 0.10946136 0.08849533 -0.06262475 0.0013119689 -0.06476807 0.1705469
0.11279958 0.025807632 0.22339712 0.19174063 0.09244103 -0.13491455 -0.20562482 -0.07300669
0.15142293 -0.014842242 0.21302985 0.16048418 0.16272277 0.23203628 -0.14163941 0.035936657
00000000: 96c2 79be fad1 a03d fd3a 4c3e f087 553e
00000010: 2f8e 3d3e 1155 0bbc 541d f9bd 7e2e 433e
00000020: e130 4d3e 80ee 9a3b 472d e03d 0a3d b53d
00000030: 6841 80bd 5ff6 ab3a 1fa5 84bd d9a3 2e3e
00000040: 7703 e73d 876a d33c 37c2 643e a857 443e
00000050: b951 bd3d 0a27 0abe 508f 52be 8884 95bd
00000060: 9d0e 1b3e e02c 73bc 7f24 5a3e f755 243e
00000070: cca0 263e eb9a 6d3e ec09 11be 5132 133d

decoder.model.4.weight f4 [40, 32]
0.09571389 -0.037101958 -0.014491394 0.16400515 -0.11174841 0.087862216 -0.035237167 0.14283893
0.11974005 -0.005230234 0.021658711 0.03458118 0.00716783 0.13633676 0.053502895 0.07114382
0.10753432 -0.08145461 -0.11646533 0.1260107 -0.047841445 -0.14666182 0.07626105 0.12081187
0.019794313 0.08497199 0.16825473 -0.012246768 -0.035410315 0.057078976 -0.017680328 -0.0112040145
0.012117303 -0.17410718 0.07039992 0.02026168 0.11671183 -0.054072183 -0.07848978 -0.09519566
-0.093462795 -0.037721913 0.123300105 0.015268356 -0.16309066 -0.024176987 -0.045417465 -0.12906301
0.0683521 -0.13003738 -0.050806105 -0.15016519 0.06943068 0.020344852 0.14623795 -0.1139086
-0.10642327 0.01965731 -0.17017935 0.16056566 0.15046886 -0.0813586 -0.1429727 -0.09271837
0.10583069 0.15887235 0.086202085 0.089608535 -0.02622723 -0.11396777 -0.13355573 0.14133656
-0.05733517 0.061401445 0.062132634 -0.10362781 -0.1663237 -0.09195986 0.046604343 -0.012980089
0.05322731 0.15173662 0.06073923 0.1272329 0.013885981 -0.13902278 0.017860105 -0.032474082
0.14954971 -0.09339849 -0.1677271 0.10163089 0.03180986 0.14225484 -0.1296167 0.049337458
-0.109916665 0.16809794 -0.054292988 -0.057958998 -0.061362978 0.048668593 0.13679236 0.04360064
0.056888092 0.1430854 -0.07007246 0.03972675 -0.08707783 -0.12918341 0.10681212 -0.10320159
0.100329675 -0.13252611 0.12615122 0.13916448 -0.042395674 0.11066803 0.11159862 0.045242026
0.047822453 -0.16764057 0.0074536894 0.11421371 -0.15759279 -0.10777042 -0.15484878 -0.16751146
0.14183873 -0.17175305 -0.07661772 0.028310217 -0.08047549 0.065465316 -0.12107156 -0.0016903868
0.15861987 -0.13512969 0.0012742672 0.063092954 -0.13888282 -0.11961802 -0.15655625 -0.09366866
0.16486341 0.065213725 0.13108802 0.014505721 0.111709565 0.09254426 0.08608329 0.02395846
0.018870914 0.07670151 0.12349765 0.15710992 0.025399946 -0.1105769 -0.13613148 0.030209439
-0.052926537 -0.024639074 0.14775357 -0.02917795 -0.095671035 0.04181749 -0.053772528 -0.12720987
0.08774993 -0.06869 0.07751297 0.13612059 0.153465 0.13245316 -0.047233343 0.11918603
0.11838529 -0.11191236 0.018105855 0.009307825 0.021404443 0.0629299 -0.1557992 -0.08336164
-0.1464341 -0.14058374 -0.040450264 -0.1148635 0.09611262 0.11011409 0.1451826 -0.13959737
-0.08134373 0.048037227 -0.053659942 0.1322801 0.042566154 0.1195957 -0.15078315 0.08263773
0.037690394 -0.025378767 0.054532174 -0.048510298 0.107698515 0.13760652 0.16403387 0.045765188
-0.1440598 -0.055456385 -0.12884343 -0.032298803 -0.060421627 0.06096333 -0.13090771 0.16879442
0.114211544 -0.037341792 -0.022889262 -0.11209983 0.04888132 -0.019183671 0.1032649 0.1865793
0.00686098 -0.11300978 -0.08303344 -0.14096792 -0.0076777097 -0.0015899343 0.12945297 0.14057419
-0.067479275 0.11689974 0.09439066 0.01513942 0.08019491 -0.1340994 -0.10040771 0.068595074
-0.15689011 -0.041848537 -0.016012272 0.07825209 -0.008570453 -0.009096997 0.12714551 -0.0055824555
0.115739115 0.1497584 0.1802825 -0.1154427 -0.14809157 0.16596423 0.15975194 -0.0071999086
00000000: a505 c43d 39f8 17bd 506d 6dbc f7f0 273e
00000010: 5adc e4bd 1bf1 b33d d954 10bd 5e44 123e
00000020: 453a f53d 6262 abbb 9c6d b13c ffa4 0d3d
00000030: 1ee0 ea3b dd9b 0b3e da25 5b3d dab3 913d
00000040: f43a dc3d add1 a6bd 6085 eebd f308 013e
00000050: 64f5 43bd 842e 16be c12e 9c3d 376c f73d
00000060: af27 a23c cb05 ae3d f84a 2c3e aba6 48bc
00000070: 680a 11bd a5cb 693d 56d6 90bc 0b91 37bc
00000080: a787 463c 2749 32be d52d 903d d3fb a53c
00000090: 9d06 ef3d cb7a 5dbd 40bf a0bd f1f5 c2bd
000000a0: 6c69 bfbd 4b82 1abd c484 fc3d 2028 7a3c
000000b0: 3d01 27be d10e c6bc aa07 3abd 1829 04be
000000c0: 30fc 8b3d 8528 05be 101a 50bd e7c4 19be
000000d0: ac31 8e3d 3faa a63c 67bf 153e e948 e9bd
000000e0: 72f4 d9bd 5e08 a13c 7f43 2ebe 536b 243e
000000f0: 8214 1a3e 569f a6bd 6f67 12be 21e3 bdbd
00000100: c3bd d83d 6faf 223e b88a b03d ae84 b73d
00000110: 7dda d6bc ef67 e9bd d5c2 08be 88ba 103e
00000120: 49d8 6abd 1580 7b3d ca7e 7e3d d13a d4bd
00000130: c350 2abe 7355 bcbd 32e4 3e3d 70aa 54bc
00000140: e104 5a3d d860 1b3e b3c9 783d 5749 023e
00000150: 0782 633c fd5b 0ebe 5b4f 923c 8b03 05bd
00000160: 8f23 193e b547 bfbd a7c0 2bbe db23 d03d
00000170: 0e4b 023d 41ab 113e 3dba 04be 1316 4a3d
00000180: fd1b e1bd de21 2c3e 5362 5ebd 6a66 6dbd
00000190: bf57 7bbd b858 473d 4c13 0c3e 9696 323d
000001a0: 7d03 693d fb84 123e 2682 8fbd 84b8 223d
000001b0: dd55 b2bd a848 04be 50c0 da3d 5b5b d3bd
000001c0: a579 cd3d edb4 07be c92d 013e 2281 0e3e
000001d0: 16a7 2dbd eca5 e23d d18d e43d b44f 393d
000001e0: 7ae1 433d f8a9 2bbe 143e f43b e1e8 e93d
000001f0: 0160 21be bdb6 dcbd ae90 1ebe 2088 2bbe
00000200: 2c3e 113e 08e0 2fbe c0e9 9cbd d4ea e73c
00000210: 55d0 a4bd ae12 863d 5ef4 f7bd f88f ddba
00000220: 3f6d 223e 705f 0abe 5005 a73a e136 813d
00000230: 4c37 0ebe 4bfa f4bd 4850 20be 5bd5 bfbd
00000240: f4d1 283e c68e 853d f03b 063e 67a9 6d3c
00000250: fcc7 e43d d887 bd3d 704c b03d 8844 c43c
00000260: 2d97 9a3c ae15 9d3d 56ec fc3d 6ce1 203e
00000270: 8c13 d03c 2476 e2bd 0d66 0bbe c979 f73c
00000280: 7fc9 58bd e2d7 c9bc b64c 173e 9906 efbc
00000290: 2def c3bd d148 2b3d 9540 5cbd 4e43 02be
000002a0: 3cb6 b33d 58ad 8cbd 1fbf 9e3d 3263 0b3e
000002b0: ee25 1d3e cda1 073e c077 41bd ce17 f43d
000002c0: fd73 f23d 4f32 e5bd bb52 943c d97f 183c
000002d0: 5f58 af3c 64e1 803d d389 1fbe 82b9 aabd
000002e0: d2f2 15be 2ff5 0fbe 2daf 25bd 8e3d ebbd
000002f0: b1d6 c43d 7f83 e13d bfaa 143e 9df2 0ebe
00000300: 8b97 a6bd afc2 443d 87ca 5bbd 6f74 073e
00000310: d959 2e3d 97ee f43d e666 1abe f83d a93d
00000320: 3e61 1a3d 22e7 cfbc 215d 5f3d bcb2 46bd
00000330: 0a91 dc3d b9e8 0c3e 7ff8 273e 4774 3b3d
00000340: 6a84 13be 3c26 63bd 88ef 03be c04b 04bd
00000350: ab7c 77bd afb4 793d ac0c 06be 72d8 2c3e
00000360: bee7 e93d b5f3 18bd 4382 bbbc 9894 e5bd
00000370: c737 483d 1327 9dbc 8c7c d33d a50e 3f3e
00000380: 12d2 e03b ac71 e7bd 700d aabd e559 10be
00000390: 4c95 fbbb 5865 d0ba 528f 043e aef2 0f3e
000003a0: 9332 8abd 2269 ef3d e44f c13d 540b 783c
000003b0: 3b3d a43d 5a51 09be 8fa2 cdbd 937b 8c3d
000003c0: cda7 20be 5f69 2bbd 2b2c 83bc a242 a03d
000003d0: 166b 0cbc 920b 15bc 6f32 023e 08ed b6bb
000003e0: a108 ed3d 445a 193e fa9b 383e 396d ecbd
000003f0: 51a5 17be 87f2 293e 0396 233e 36ed ebbb

decoder.model.4.bias f4 [40]
-0.13414598 0.15987283 -0.107677236 -0.0022864856 -0.10915733 0.1533912 -0.102122754 -0.0453923
0.16089405 0.040083706 -0.07664666 -0.07698977 -0.07220982 -0.15013193 -0.0727275 0.03895518
-0.04750534 0.100322895 -0.02685202 0.08401976 -0.1383749 0.0544297 -0.11841266 -0.05144865
0.06380563 0.122958876 -0.050221168 0.0697084 -0.00017752821 -0.024927383 0.1404147 -0.1421045
-0.021330534 -0.10489061 -0.13223377 -0.16915572 -0.045015857 -0.15777482 -0.020819066 -0.056640353
00000000: 905d 09be b4b5 233e e285 dcbd ddd8 15bb
00000010: e18d dfbd 9512 1d3e bc25 d1bd 47ed 39bd
00000020: 69c1 243e d02e 243d edf8 9cbd d0ac 9dbd
00000030: bee2 93bd 2fbc 19be 28f2 94bd 788f 1f3d
00000040: f694 42bd 1776 cd3d c4f8 dbbc 8d12 ac3d
00000050: 26b2 0dbe adf1 5e3d 5682 f2bd d2bb 52bd
00000060: 87ac 823d ddd1 fb3d b6b4 4dbd 47c3 8e3d
00000070: de26 3ab9 8334 ccbc dfc8 0f3e d883 11be
00000080: 5fbd aebc e3d0 d6bd 4a68 07be 2837 2dbe
00000090: 8c62 38bd b98f 21be bf8c aabc b7ff 67bd

dynamics.A f4 [7, 8, 8]
0.97237456 -0.0052062375 -0.0044658156 -0.006019372 -0.003952562 0.0044771153 0.022948852 0.0076240054
0.011733889 0.9889581 -0.014427622 0.009308645 -0.0035303214 -0.009832186 -0.011348571 -0.016083034
-0.021700235 0.0077113137 1.0080684 -0.010213587 -0.010598821 -0.024031585 0.018284554 -0.017177112
-0.011097096 -0.012885141 0.0050619533 0.9658844 -0.014195703 0.008385374 -0.018116767 -0.004514556
-0.007758112 -0.016942048 0.0045619784 -0.006336407 0.9856606 -0.033492465 0.0012436458 -0.0020303612
-0.004321463 -0.010497948 0.0035501057 -0.012873103 -0.008501916 0.98580724 0.016918316 0.0078121442
-0.017557506 -0.005998281 0.028323893 -0.007606257 -0.022315277 0.00073742785 0.9762418 -0.020312378
0.0073824045 -0.0043087634 -0.02328993 0.0118140355 -0.010154726 -0.007327263 -0.010161518 1.0004551
-0.026442045 -0.0060875383 -0.06576055 0.009833306 -0.05473513 -0.0012796733 -0.043578815 -0.013809846
0.023055999 0.059662435 -0.0342355 0.011604286 0.022586092 -0.07813362 0.040716972 -0.028568707
0.060685463 0.002338503 0.035149932 0.02263317 -0.11093811 0.035964713 -0.014695853 -0.06449822
-0.054213632 0.016264057 0.010784344 0.072751686 -0.014472112 0.03514378 -0.015440619 -0.07112756
-0.052312534 0.038048454 -0.05359848 0.021375619 -0.01610198 0.08586978 0.037509367 0.020819983
-0.021137724 0.017945161 -0.005796016 -0.038678974 0.039088912 -0.0052029663 0.03307556 -0.011480589
0.0013928752 -0.019734016 -0.030286072 0.038004167 0.0149593055 -0.034221794 0.034283906 0.0064758332
0.05645003 0.013430955 -0.058801845 -0.037163984 -0.05377458 -0.05111149 0.031910613 0.014990826
-0.0843262 0.03204054 -0.031845342 0.019266674 0.018120507 -0.0158646 0.02778549 0.0036724801
0.041384496 0.06395698 -0.045176834 -0.009809389 0.031542044 0.109345704 0.00958746 0.07085826
0.0025841426 -0.060553286 -0.034635913 -0.06553321 0.031403005 -0.061979048 0.0003199617 0.036550883
-0.030639201 -0.030913781 -0.06627141 -0.07242518 -0.066707306 -0.05260276 0.04666516 -0.046147764
0.05743846 -0.04849416 0.028214015 -0.016468221 -0.02599204 -0.03700509 0.08723729 0.07431987
0.03755521 -0.0106714545 -0.012825837 0.035109404 -0.04903232 0.037307415 0.04567744 0.06255187
-0.01082003 0.035120107 -0.005183195 0.0571284 0.05138966 -0.013590248 -0.07060127 0.084096886
-0.009597854 -0.06295607 0.007442395 0.03718613 -0.08609818 -0.028719462 -0.045530796 0.08551984
-0.02661947 -0.04349279 0.09161123 -0.008872324 -0.02111533 -0.036988012 0.021833792 -0.01060654
0.06842815 0.0402326 0.07171347 -0.069457516 0.0032563042 0.035899594 0.0039809593 -0.054019444
-0.020581981 -0.03590053 0.038032435 0.021621902 0.03340266 -0.008110903 -0.07621142 0.095438994
0.016118985 -0.054216255 0.06592639 -0.043317016 -0.034160145 0.051604915 0.016942272 -0.047856525
-0.011166329 -0.025027787 -0.027415326 -0.008446038 -0.035811298 0.038036127 -0.060699817 -0.098975234
-0.066140756 -0.030444091 0.037437018 -0.0019009131 0.027692057 -0.009048625 -0.03964329 0.11220846
-0.021221068 0.01256298 0.01384326 0.10439634 0.057471294 -0.04170866 -0.013673654 0.06506993
0.07589447 0.015651455 0.01291426 -0.058596235 -0.051410932 -0.033688672 0.07706156 0.04731259
00000000: 8aed 783f 1699 aabb fa55 92bb 273e c5bb
00000010: 7e84 81bb c4b4 923b 3bff bb3c cbd2 f93b
00000020: 7f3f 403c 5c2c 7d3f d561 6cbc 4983 183c
00000030: f75c 67bb 2d17 21bc 5bef 39bc 91c0 83bc
00000040: b1c4 b1bc 30af fc3b 6308 813f e456 27bc
00000050: ada6 2dbc e3dd c4bc 7dc9 953c 04b7 8cbc
00000060: 98d0 35bc 331c 53bc bede a53b 3344 773f
00000070: 1895 68bc cf62 093c 9d69 94bc d7ee 93bb
00000080: c337 febb 0dca 8abc a67c 953b a2a1 cfbb
00000090: 4154 7c3f 652f 09bd d401 a33a cf0f 05bb
000000a0: 0f9b 8dbb 96ff 2bbc e4a8 683b b5e9 52bc
000000b0: 9f4b 0bbc dd5d 7c3f 4898 8a3c 04fd ff3b
000000c0: c2d4 8fbc 3a8d c4bb 8207 e83c e93d f9bb
000000d0: 87ce b6bc f24f 413a fcea 793f 2566 a6bc
000000e0: 19e8 f13b 8730 8dbb 86ca bebc a88f 413c
000000f0: 0260 26bc 8919 f0bb 7f7c 26bc ea0e 803f
00000100: fd9c d8bc f979 c7bb 78ad 86bd e01b 213c
00000110: f231 60bd b6ba a7ba b37f 32bd b142 62bc
00000120: efdf bc3c 9960 743d 863a 0cbd e71f 3e3c
00000130: 7806 b93c 8504 a0bd d7c6 263d ec08 eabc
00000140: 5291 783d 9241 193b 60f9 0f3d 3369 b93c
00000150: 8533 e3bd bc4f 133d e0c6 70bc a517 84bd
00000160: 1d0f 5ebd 333c 853c d1b0 303c d6fe 943d
00000170: 701c 6dbc edf2 0f3d a6fa 7cbc 54ab 91bd
00000180: ab45 56bd b2d8 1b3d 148a 5bbd ec1b af3c
00000190: 4de8 83bc 7fdc af3d 6ca3 193d ab8e aa3c
000001a0: 0529 adbc bb01 933c 82ec bdbb d86d 1ebd
000001b0: b21b 203d a57d aabb 3d7a 073d 1519 3cbc
000001c0: 2391 b63a 3ba9 a1bc 7f1a f8bc 42aa 1b3d
000001d0: e017 753c 272c 0cbd 486d 0c3d 3a33 d43b
000001e0: 2638 673d 820d 5c3c 34da 70bd 4339 18bd
000001f0: bc42 5cbd 485a 51bd b4b4 023d 159c 753c
00000200: 37b3 acbd f13c 033d 4370 02bd 25d5 9d3c
00000210: 7571 943c 7af6 81bc 659e e33c fead 703b
00000220: ca82 293d e1fb 823d 580b 39bd 8fb7 20bc
00000230: 3b32 013d a4f0 df3d b914 1d3c 231e 913d
00000240: b85a 293b b906 78bd 63de 0dbd 4736 86bd
00000250: 70a0 003d bedd 7dbd 88c0 a739 61b6 153d
00000260: 10ff fabc e63e fdbc 4eb9 87bd a753 94bd
00000270: d79d 88bd fe75 57bd f823 3f3d 7005 3dbd
00000280: 9744 6b3d d0a1 46bd 1421 e73c 5de8 86bc
00000290: 42ed d4bc a692 17bd 77a9 b23d 0435 983d
000002a0: 7ed3 193d 53d7 2ebc 7623 52bc e1ce 0f3d
000002b0: 1dd6 48bd a9cf 183d 4418 3b3d 321b 803d
000002c0: 7f46 31bc 1ada 0f3d cbd7 a9bb 78ff 693d
000002d0: f77d 523d a2a9 5ebc 6697 90bd fd3a ac3d
000002e0: 5140 1dbc 1def 80bd 56df f33b 7c50 183d
000002f0: 3e54 b0bd 1445 ebbc 807e 3abd 0725 af3d
00000300: 1311 dabc 7f25 32bd ab9e bb3d 395d 11bc
00000310: 0efa acbc be80 17bd c8dc b23c 0ec7 2dbc
00000320: 0f24 8c3d f0ca 243d 83de 923d be3f 8ebd
00000330: b867 553b 740b 133d b572 823b 7e43 5dbd
00000340: 8b9b a8bc 6f0c 13bd e6c7 1b3d 6a20 b13c
00000350: 3ad1 083d 98e3 04bc bc14 9cbd 8575 c33d
00000360: f60b 843c dd11 5ebd 6a04 873d 2f6d 31bd
00000370: 82eb 0bbd ad5f 533d 85ca 8a3c 3405 44bd
00000380: faf2 36bc 1307 cdbc 1b96 e0bc 4061 0abc
00000390: deae 12bd c5cb 1b3d 5fa0 78bd 87b3 cabd
000003a0: ce74 87bd e365 f9bc 8f57 193d 0f28 f9ba
000003b0: 74da e23c af40 14bc 0161 22bd 8dcd e53d
000003c0: ced7 adbc f5d4 4d3c d7ce 623c c0cd d53d
000003d0: 0567 6b3d b3d6 2abd 7607 60bc 6243 853d
000003e0: 8f6e 9b3d 7b37 803c 5596 533c 9b02 70bd
000003f0: 4594 52bd 22fd 09bd 73d2 9d3d d9ca 413d
